<?xml version="1.0" ?>
<net name="torch-jit-export" version="11">
	<layers>
		<layer id="27" name="data" type="Parameter" version="opset1">
			<data shape="1,3,256,128" element_type="f32"/>
			<rt_info>
				<attribute name="old_api_map_element_type" version="0" value="f16"/>
			</rt_info>
			<output>
				<port id="0" precision="FP32" names="data">
					<dim>1</dim>
					<dim>3</dim>
					<dim>256</dim>
					<dim>128</dim>
					<rt_info>
						<attribute name="layout" version="0" layout="[N,C,H,W]"/>
					</rt_info>
				</port>
			</output>
		</layer>
		<layer id="0" name="108281083237405" type="Const" version="opset1">
			<data offset="0" size="4" shape="" element_type="f32"/>
			<output>
				<port id="0" precision="FP32"/>
			</output>
		</layer>
		<layer id="1" name="108291083336343" type="Const" version="opset1">
			<data offset="4" size="4" shape="" element_type="f32"/>
			<output>
				<port id="0" precision="FP32"/>
			</output>
		</layer>
		<layer id="2" name="108301083437930" type="Const" version="opset1">
			<data offset="0" size="4" shape="" element_type="f32"/>
			<output>
				<port id="0" precision="FP32"/>
			</output>
		</layer>
		<layer id="3" name="108311083536247" type="Const" version="opset1">
			<data offset="4" size="4" shape="" element_type="f32"/>
			<output>
				<port id="0" precision="FP32"/>
			</output>
		</layer>
		<layer id="4" name="Constant_594119636235" type="Const" version="opset1">
			<data offset="8" size="16" shape="2" element_type="i64"/>
			<output>
				<port id="0" precision="I64">
					<dim>2</dim>
				</port>
			</output>
		</layer>
		<layer id="5" name="4875487937735" type="Const" version="opset1">
			<data offset="24" size="4" shape="" element_type="f32"/>
			<output>
				<port id="0" precision="FP32"/>
			</output>
		</layer>
		<layer id="6" name="4876488039214" type="Const" version="opset1">
			<data offset="28" size="4" shape="" element_type="f32"/>
			<output>
				<port id="0" precision="FP32"/>
			</output>
		</layer>
		<layer id="7" name="4877488135668" type="Const" version="opset1">
			<data offset="24" size="4" shape="" element_type="f32"/>
			<output>
				<port id="0" precision="FP32"/>
			</output>
		</layer>
		<layer id="8" name="4878488238836" type="Const" version="opset1">
			<data offset="28" size="4" shape="" element_type="f32"/>
			<output>
				<port id="0" precision="FP32"/>
			</output>
		</layer>
		<layer id="9" name="3034303636253" type="Const" version="opset1">
			<data offset="32" size="128" shape="1,32,1,1" element_type="f32"/>
			<output>
				<port id="0" precision="FP32">
					<dim>1</dim>
					<dim>32</dim>
					<dim>1</dim>
					<dim>1</dim>
				</port>
			</output>
		</layer>
		<layer id="10" name="4925492937408" type="Const" version="opset1">
			<data offset="160" size="4" shape="" element_type="f32"/>
			<output>
				<port id="0" precision="FP32"/>
			</output>
		</layer>
		<layer id="11" name="4926493036655" type="Const" version="opset1">
			<data offset="164" size="4" shape="" element_type="f32"/>
			<output>
				<port id="0" precision="FP32"/>
			</output>
		</layer>
		<layer id="12" name="4927493134765" type="Const" version="opset1">
			<data offset="160" size="4" shape="" element_type="f32"/>
			<output>
				<port id="0" precision="FP32"/>
			</output>
		</layer>
		<layer id="13" name="4928493238992" type="Const" version="opset1">
			<data offset="164" size="4" shape="" element_type="f32"/>
			<output>
				<port id="0" precision="FP32"/>
			</output>
		</layer>
		<layer id="14" name="Constant_564118538071" type="Const" version="opset1">
			<data offset="8" size="16" shape="2" element_type="i64"/>
			<output>
				<port id="0" precision="I64">
					<dim>2</dim>
				</port>
			</output>
		</layer>
		<layer id="15" name="4575457939253" type="Const" version="opset1">
			<data offset="168" size="4" shape="" element_type="f32"/>
			<output>
				<port id="0" precision="FP32"/>
			</output>
		</layer>
		<layer id="16" name="4576458037228" type="Const" version="opset1">
			<data offset="172" size="4" shape="" element_type="f32"/>
			<output>
				<port id="0" precision="FP32"/>
			</output>
		</layer>
		<layer id="17" name="4577458135809" type="Const" version="opset1">
			<data offset="168" size="4" shape="" element_type="f32"/>
			<output>
				<port id="0" precision="FP32"/>
			</output>
		</layer>
		<layer id="18" name="4578458238218" type="Const" version="opset1">
			<data offset="172" size="4" shape="" element_type="f32"/>
			<output>
				<port id="0" precision="FP32"/>
			</output>
		</layer>
		<layer id="19" name="6205620937357" type="Const" version="opset1">
			<data offset="176" size="4" shape="" element_type="f32"/>
			<output>
				<port id="0" precision="FP32"/>
			</output>
		</layer>
		<layer id="20" name="6206621039139" type="Const" version="opset1">
			<data offset="180" size="4" shape="" element_type="f32"/>
			<output>
				<port id="0" precision="FP32"/>
			</output>
		</layer>
		<layer id="21" name="6207621136757" type="Const" version="opset1">
			<data offset="176" size="4" shape="" element_type="f32"/>
			<output>
				<port id="0" precision="FP32"/>
			</output>
		</layer>
		<layer id="22" name="6208621234753" type="Const" version="opset1">
			<data offset="180" size="4" shape="" element_type="f32"/>
			<output>
				<port id="0" precision="FP32"/>
			</output>
		</layer>
		<layer id="23" name="108581086234900" type="Const" version="opset1">
			<data offset="0" size="4" shape="" element_type="f32"/>
			<output>
				<port id="0" precision="FP32"/>
			</output>
		</layer>
		<layer id="24" name="108591086337882" type="Const" version="opset1">
			<data offset="184" size="4" shape="" element_type="f32"/>
			<output>
				<port id="0" precision="FP32"/>
			</output>
		</layer>
		<layer id="25" name="108601086437618" type="Const" version="opset1">
			<data offset="0" size="4" shape="" element_type="f32"/>
			<output>
				<port id="0" precision="FP32"/>
			</output>
		</layer>
		<layer id="26" name="108611086534864" type="Const" version="opset1">
			<data offset="184" size="4" shape="" element_type="f32"/>
			<output>
				<port id="0" precision="FP32"/>
			</output>
		</layer>
		<layer id="28" name="Gather_3996/fq_input_0" type="FakeQuantize" version="opset1">
			<data levels="256" auto_broadcast="numpy"/>
			<input>
				<port id="0">
					<dim>1</dim>
					<dim>3</dim>
					<dim>256</dim>
					<dim>128</dim>
				</port>
				<port id="1"/>
				<port id="2"/>
				<port id="3"/>
				<port id="4"/>
			</input>
			<output>
				<port id="5" precision="FP32">
					<dim>1</dim>
					<dim>3</dim>
					<dim>256</dim>
					<dim>128</dim>
				</port>
			</output>
		</layer>
		<layer id="29" name="Range_39941176" type="Const" version="opset1">
			<data offset="188" size="12" shape="3" element_type="i32"/>
			<output>
				<port id="0" precision="I32">
					<dim>3</dim>
				</port>
			</output>
		</layer>
		<layer id="30" name="Constant_39951177" type="Const" version="opset1">
			<data offset="200" size="8" shape="1" element_type="i64"/>
			<output>
				<port id="0" precision="I64">
					<dim>1</dim>
				</port>
			</output>
		</layer>
		<layer id="31" name="Gather_3996" type="Gather" version="opset8">
			<data batch_dims="0"/>
			<rt_info>
				<attribute name="preprocessing" version="0"/>
			</rt_info>
			<input>
				<port id="0">
					<dim>1</dim>
					<dim>3</dim>
					<dim>256</dim>
					<dim>128</dim>
				</port>
				<port id="1">
					<dim>3</dim>
				</port>
				<port id="2">
					<dim>1</dim>
				</port>
			</input>
			<output>
				<port id="3" precision="FP32">
					<dim>1</dim>
					<dim>3</dim>
					<dim>256</dim>
					<dim>128</dim>
				</port>
			</output>
		</layer>
		<layer id="32" name="Subtract_3998/fq_weights_1/scale2469335617" type="Const" version="opset1">
			<data offset="208" size="4" shape="1,1,1,1" element_type="f32"/>
			<output>
				<port id="0" precision="FP32">
					<dim>1</dim>
					<dim>1</dim>
					<dim>1</dim>
					<dim>1</dim>
				</port>
			</output>
		</layer>
		<layer id="33" name="Constant_3997118018861/restored_convert/quantized2468537081" type="Const" version="opset1">
			<data offset="212" size="3" shape="1,3,1,1" element_type="i8"/>
			<output>
				<port id="0" precision="I8">
					<dim>1</dim>
					<dim>3</dim>
					<dim>1</dim>
					<dim>1</dim>
				</port>
			</output>
		</layer>
		<layer id="34" name="Constant_3997118018861/restored_convert/quantized/to_f32" type="Convert" version="opset1">
			<data destination_type="f32"/>
			<input>
				<port id="0">
					<dim>1</dim>
					<dim>3</dim>
					<dim>1</dim>
					<dim>1</dim>
				</port>
			</input>
			<output>
				<port id="1" precision="FP32">
					<dim>1</dim>
					<dim>3</dim>
					<dim>1</dim>
					<dim>1</dim>
				</port>
			</output>
		</layer>
		<layer id="35" name="Subtract_3998/fq_weights_1/mulpiply_by_scale" type="Multiply" version="opset1">
			<data auto_broadcast="numpy"/>
			<input>
				<port id="0">
					<dim>1</dim>
					<dim>3</dim>
					<dim>1</dim>
					<dim>1</dim>
				</port>
				<port id="1">
					<dim>1</dim>
					<dim>1</dim>
					<dim>1</dim>
					<dim>1</dim>
				</port>
			</input>
			<output>
				<port id="2" precision="FP32">
					<dim>1</dim>
					<dim>3</dim>
					<dim>1</dim>
					<dim>1</dim>
				</port>
			</output>
		</layer>
		<layer id="36" name="Subtract_3998" type="Subtract" version="opset1">
			<data auto_broadcast="numpy"/>
			<rt_info>
				<attribute name="preprocessing" version="0"/>
			</rt_info>
			<input>
				<port id="0">
					<dim>1</dim>
					<dim>3</dim>
					<dim>256</dim>
					<dim>128</dim>
				</port>
				<port id="1">
					<dim>1</dim>
					<dim>3</dim>
					<dim>1</dim>
					<dim>1</dim>
				</port>
			</input>
			<output>
				<port id="2" precision="FP32">
					<dim>1</dim>
					<dim>3</dim>
					<dim>256</dim>
					<dim>128</dim>
				</port>
			</output>
		</layer>
		<layer id="37" name="Divide_4000/fq_input_0" type="FakeQuantize" version="opset1">
			<data levels="256" auto_broadcast="numpy"/>
			<input>
				<port id="0">
					<dim>1</dim>
					<dim>3</dim>
					<dim>256</dim>
					<dim>128</dim>
				</port>
				<port id="1"/>
				<port id="2"/>
				<port id="3"/>
				<port id="4"/>
			</input>
			<output>
				<port id="5" precision="FP32">
					<dim>1</dim>
					<dim>3</dim>
					<dim>256</dim>
					<dim>128</dim>
				</port>
			</output>
		</layer>
		<layer id="38" name="Divide_4000/fq_weights_1/scale2337338203" type="Const" version="opset1">
			<data offset="215" size="4" shape="1,1,1,1" element_type="f32"/>
			<output>
				<port id="0" precision="FP32">
					<dim>1</dim>
					<dim>1</dim>
					<dim>1</dim>
					<dim>1</dim>
				</port>
			</output>
		</layer>
		<layer id="39" name="Constant_8886118318862/restored_convert/quantized2336535836" type="Const" version="opset1">
			<data offset="219" size="3" shape="1,3,1,1" element_type="i8"/>
			<output>
				<port id="0" precision="I8">
					<dim>1</dim>
					<dim>3</dim>
					<dim>1</dim>
					<dim>1</dim>
				</port>
			</output>
		</layer>
		<layer id="40" name="Constant_8886118318862/restored_convert/quantized/to_f32" type="Convert" version="opset1">
			<data destination_type="f32"/>
			<input>
				<port id="0">
					<dim>1</dim>
					<dim>3</dim>
					<dim>1</dim>
					<dim>1</dim>
				</port>
			</input>
			<output>
				<port id="1" precision="FP32">
					<dim>1</dim>
					<dim>3</dim>
					<dim>1</dim>
					<dim>1</dim>
				</port>
			</output>
		</layer>
		<layer id="41" name="Divide_4000/fq_weights_1/mulpiply_by_scale" type="Multiply" version="opset1">
			<data auto_broadcast="numpy"/>
			<input>
				<port id="0">
					<dim>1</dim>
					<dim>3</dim>
					<dim>1</dim>
					<dim>1</dim>
				</port>
				<port id="1">
					<dim>1</dim>
					<dim>1</dim>
					<dim>1</dim>
					<dim>1</dim>
				</port>
			</input>
			<output>
				<port id="2" precision="FP32">
					<dim>1</dim>
					<dim>3</dim>
					<dim>1</dim>
					<dim>1</dim>
				</port>
			</output>
		</layer>
		<layer id="42" name="Divide_4000" type="Multiply" version="opset1">
			<data auto_broadcast="numpy"/>
			<rt_info>
				<attribute name="preprocessing" version="0"/>
			</rt_info>
			<input>
				<port id="0">
					<dim>1</dim>
					<dim>3</dim>
					<dim>256</dim>
					<dim>128</dim>
				</port>
				<port id="1">
					<dim>1</dim>
					<dim>3</dim>
					<dim>1</dim>
					<dim>1</dim>
				</port>
			</input>
			<output>
				<port id="2" precision="FP32">
					<dim>1</dim>
					<dim>3</dim>
					<dim>256</dim>
					<dim>128</dim>
				</port>
			</output>
		</layer>
		<layer id="43" name="MVN_565/fq_input_0" type="FakeQuantize" version="opset1">
			<data levels="256" auto_broadcast="numpy"/>
			<input>
				<port id="0">
					<dim>1</dim>
					<dim>3</dim>
					<dim>256</dim>
					<dim>128</dim>
				</port>
				<port id="1"/>
				<port id="2"/>
				<port id="3"/>
				<port id="4"/>
			</input>
			<output>
				<port id="5" precision="FP32">
					<dim>1</dim>
					<dim>3</dim>
					<dim>256</dim>
					<dim>128</dim>
				</port>
			</output>
		</layer>
		<layer id="44" name="MVN_565" type="MVN" version="opset6">
			<data eps="9.999999747378752e-06" eps_mode="INSIDE_SQRT" normalize_variance="true"/>
			<input>
				<port id="0">
					<dim>1</dim>
					<dim>3</dim>
					<dim>256</dim>
					<dim>128</dim>
				</port>
				<port id="1">
					<dim>2</dim>
				</port>
			</input>
			<output>
				<port id="2" precision="FP32">
					<dim>1</dim>
					<dim>3</dim>
					<dim>256</dim>
					<dim>128</dim>
				</port>
			</output>
		</layer>
		<layer id="45" name="Reshape_576118838716" type="Const" version="opset1">
			<data offset="222" size="6" shape="1,3,1,1" element_type="f16"/>
			<output>
				<port id="0" precision="FP16">
					<dim>1</dim>
					<dim>3</dim>
					<dim>1</dim>
					<dim>1</dim>
				</port>
			</output>
		</layer>
		<layer id="46" name="Reshape_576118818864/restored_convert" type="Convert" version="opset1">
			<data destination_type="f32"/>
			<rt_info>
				<attribute name="decompression" version="0"/>
			</rt_info>
			<input>
				<port id="0">
					<dim>1</dim>
					<dim>3</dim>
					<dim>1</dim>
					<dim>1</dim>
				</port>
			</input>
			<output>
				<port id="1" precision="FP32">
					<dim>1</dim>
					<dim>3</dim>
					<dim>1</dim>
					<dim>1</dim>
				</port>
			</output>
		</layer>
		<layer id="47" name="Multiply_579" type="Multiply" version="opset1">
			<data auto_broadcast="numpy"/>
			<input>
				<port id="0">
					<dim>1</dim>
					<dim>3</dim>
					<dim>256</dim>
					<dim>128</dim>
				</port>
				<port id="1">
					<dim>1</dim>
					<dim>3</dim>
					<dim>1</dim>
					<dim>1</dim>
				</port>
			</input>
			<output>
				<port id="2" precision="FP32">
					<dim>1</dim>
					<dim>3</dim>
					<dim>256</dim>
					<dim>128</dim>
				</port>
			</output>
		</layer>
		<layer id="48" name="Reshape_588119136610" type="Const" version="opset1">
			<data offset="228" size="6" shape="1,3,1,1" element_type="f16"/>
			<output>
				<port id="0" precision="FP16">
					<dim>1</dim>
					<dim>3</dim>
					<dim>1</dim>
					<dim>1</dim>
				</port>
			</output>
		</layer>
		<layer id="49" name="Reshape_588119118865/restored_convert" type="Convert" version="opset1">
			<data destination_type="f32"/>
			<rt_info>
				<attribute name="decompression" version="0"/>
			</rt_info>
			<input>
				<port id="0">
					<dim>1</dim>
					<dim>3</dim>
					<dim>1</dim>
					<dim>1</dim>
				</port>
			</input>
			<output>
				<port id="1" precision="FP32">
					<dim>1</dim>
					<dim>3</dim>
					<dim>1</dim>
					<dim>1</dim>
				</port>
			</output>
		</layer>
		<layer id="50" name="563" type="Add" version="opset1">
			<data auto_broadcast="numpy"/>
			<input>
				<port id="0">
					<dim>1</dim>
					<dim>3</dim>
					<dim>256</dim>
					<dim>128</dim>
				</port>
				<port id="1">
					<dim>1</dim>
					<dim>3</dim>
					<dim>1</dim>
					<dim>1</dim>
				</port>
			</input>
			<output>
				<port id="2" precision="FP32" names="563">
					<dim>1</dim>
					<dim>3</dim>
					<dim>256</dim>
					<dim>128</dim>
				</port>
			</output>
		</layer>
		<layer id="51" name="564/fq_input_0" type="FakeQuantize" version="opset1">
			<data levels="256" auto_broadcast="numpy"/>
			<input>
				<port id="0">
					<dim>1</dim>
					<dim>3</dim>
					<dim>256</dim>
					<dim>128</dim>
				</port>
				<port id="1"/>
				<port id="2"/>
				<port id="3"/>
				<port id="4"/>
			</input>
			<output>
				<port id="5" precision="FP32">
					<dim>1</dim>
					<dim>3</dim>
					<dim>256</dim>
					<dim>128</dim>
				</port>
			</output>
		</layer>
		<layer id="52" name="564/fq_weights_1/scale2286337432" type="Const" version="opset1">
			<data offset="234" size="128" shape="32,1,1,1" element_type="f32"/>
			<output>
				<port id="0" precision="FP32">
					<dim>32</dim>
					<dim>1</dim>
					<dim>1</dim>
					<dim>1</dim>
				</port>
			</output>
		</layer>
		<layer id="53" name="conv1.conv.weight119418866/restored_convert/quantized2285535575" type="Const" version="opset1">
			<data offset="362" size="4704" shape="32,3,7,7" element_type="i8"/>
			<output>
				<port id="0" precision="I8">
					<dim>32</dim>
					<dim>3</dim>
					<dim>7</dim>
					<dim>7</dim>
				</port>
			</output>
		</layer>
		<layer id="54" name="conv1.conv.weight119418866/restored_convert/quantized/to_f32" type="Convert" version="opset1">
			<data destination_type="f32"/>
			<input>
				<port id="0">
					<dim>32</dim>
					<dim>3</dim>
					<dim>7</dim>
					<dim>7</dim>
				</port>
			</input>
			<output>
				<port id="1" precision="FP32">
					<dim>32</dim>
					<dim>3</dim>
					<dim>7</dim>
					<dim>7</dim>
				</port>
			</output>
		</layer>
		<layer id="55" name="564/fq_weights_1/mulpiply_by_scale" type="Multiply" version="opset1">
			<data auto_broadcast="numpy"/>
			<input>
				<port id="0">
					<dim>32</dim>
					<dim>3</dim>
					<dim>7</dim>
					<dim>7</dim>
				</port>
				<port id="1">
					<dim>32</dim>
					<dim>1</dim>
					<dim>1</dim>
					<dim>1</dim>
				</port>
			</input>
			<output>
				<port id="2" precision="FP32">
					<dim>32</dim>
					<dim>3</dim>
					<dim>7</dim>
					<dim>7</dim>
				</port>
			</output>
		</layer>
		<layer id="56" name="564" type="Convolution" version="opset1">
			<data auto_pad="explicit" strides="2,2" dilations="1,1" pads_begin="3,3" pads_end="3,3"/>
			<input>
				<port id="0">
					<dim>1</dim>
					<dim>3</dim>
					<dim>256</dim>
					<dim>128</dim>
				</port>
				<port id="1">
					<dim>32</dim>
					<dim>3</dim>
					<dim>7</dim>
					<dim>7</dim>
				</port>
			</input>
			<output>
				<port id="2" precision="FP32" names="564">
					<dim>1</dim>
					<dim>32</dim>
					<dim>128</dim>
					<dim>64</dim>
				</port>
			</output>
		</layer>
		<layer id="57" name="564/add_" type="Add" version="opset1">
			<data auto_broadcast="numpy"/>
			<input>
				<port id="0">
					<dim>1</dim>
					<dim>32</dim>
					<dim>128</dim>
					<dim>64</dim>
				</port>
				<port id="1">
					<dim>1</dim>
					<dim>32</dim>
					<dim>1</dim>
					<dim>1</dim>
				</port>
			</input>
			<output>
				<port id="2" precision="FP32">
					<dim>1</dim>
					<dim>32</dim>
					<dim>128</dim>
					<dim>64</dim>
				</port>
			</output>
		</layer>
		<layer id="58" name="MVN_595/fq_input_0" type="FakeQuantize" version="opset1">
			<data levels="256" auto_broadcast="numpy"/>
			<input>
				<port id="0">
					<dim>1</dim>
					<dim>32</dim>
					<dim>128</dim>
					<dim>64</dim>
				</port>
				<port id="1"/>
				<port id="2"/>
				<port id="3"/>
				<port id="4"/>
			</input>
			<output>
				<port id="5" precision="FP32">
					<dim>1</dim>
					<dim>32</dim>
					<dim>128</dim>
					<dim>64</dim>
				</port>
			</output>
		</layer>
		<layer id="59" name="MVN_595" type="MVN" version="opset6">
			<data eps="9.999999747378752e-06" eps_mode="INSIDE_SQRT" normalize_variance="true"/>
			<input>
				<port id="0">
					<dim>1</dim>
					<dim>32</dim>
					<dim>128</dim>
					<dim>64</dim>
				</port>
				<port id="1">
					<dim>2</dim>
				</port>
			</input>
			<output>
				<port id="2" precision="FP32">
					<dim>1</dim>
					<dim>32</dim>
					<dim>128</dim>
					<dim>64</dim>
				</port>
			</output>
		</layer>
		<layer id="60" name="Reshape_606119937507" type="Const" version="opset1">
			<data offset="5066" size="64" shape="1,32,1,1" element_type="f16"/>
			<output>
				<port id="0" precision="FP16">
					<dim>1</dim>
					<dim>32</dim>
					<dim>1</dim>
					<dim>1</dim>
				</port>
			</output>
		</layer>
		<layer id="61" name="Reshape_606119918868/restored_convert" type="Convert" version="opset1">
			<data destination_type="f32"/>
			<rt_info>
				<attribute name="decompression" version="0"/>
			</rt_info>
			<input>
				<port id="0">
					<dim>1</dim>
					<dim>32</dim>
					<dim>1</dim>
					<dim>1</dim>
				</port>
			</input>
			<output>
				<port id="1" precision="FP32">
					<dim>1</dim>
					<dim>32</dim>
					<dim>1</dim>
					<dim>1</dim>
				</port>
			</output>
		</layer>
		<layer id="62" name="Multiply_609" type="Multiply" version="opset1">
			<data auto_broadcast="numpy"/>
			<input>
				<port id="0">
					<dim>1</dim>
					<dim>32</dim>
					<dim>128</dim>
					<dim>64</dim>
				</port>
				<port id="1">
					<dim>1</dim>
					<dim>32</dim>
					<dim>1</dim>
					<dim>1</dim>
				</port>
			</input>
			<output>
				<port id="2" precision="FP32">
					<dim>1</dim>
					<dim>32</dim>
					<dim>128</dim>
					<dim>64</dim>
				</port>
			</output>
		</layer>
		<layer id="63" name="Reshape_618120239043" type="Const" version="opset1">
			<data offset="5130" size="64" shape="1,32,1,1" element_type="f16"/>
			<output>
				<port id="0" precision="FP16">
					<dim>1</dim>
					<dim>32</dim>
					<dim>1</dim>
					<dim>1</dim>
				</port>
			</output>
		</layer>
		<layer id="64" name="Reshape_618120218869/restored_convert" type="Convert" version="opset1">
			<data destination_type="f32"/>
			<rt_info>
				<attribute name="decompression" version="0"/>
			</rt_info>
			<input>
				<port id="0">
					<dim>1</dim>
					<dim>32</dim>
					<dim>1</dim>
					<dim>1</dim>
				</port>
			</input>
			<output>
				<port id="1" precision="FP32">
					<dim>1</dim>
					<dim>32</dim>
					<dim>1</dim>
					<dim>1</dim>
				</port>
			</output>
		</layer>
		<layer id="65" name="565" type="Add" version="opset1">
			<data auto_broadcast="numpy"/>
			<input>
				<port id="0">
					<dim>1</dim>
					<dim>32</dim>
					<dim>128</dim>
					<dim>64</dim>
				</port>
				<port id="1">
					<dim>1</dim>
					<dim>32</dim>
					<dim>1</dim>
					<dim>1</dim>
				</port>
			</input>
			<output>
				<port id="2" precision="FP32" names="565">
					<dim>1</dim>
					<dim>32</dim>
					<dim>128</dim>
					<dim>64</dim>
				</port>
			</output>
		</layer>
		<layer id="66" name="566" type="ReLU" version="opset1">
			<input>
				<port id="0">
					<dim>1</dim>
					<dim>32</dim>
					<dim>128</dim>
					<dim>64</dim>
				</port>
			</input>
			<output>
				<port id="1" precision="FP32" names="566">
					<dim>1</dim>
					<dim>32</dim>
					<dim>128</dim>
					<dim>64</dim>
				</port>
			</output>
		</layer>
		<layer id="67" name="567/fq_input_0" type="FakeQuantize" version="opset1">
			<data levels="256" auto_broadcast="numpy"/>
			<input>
				<port id="0">
					<dim>1</dim>
					<dim>32</dim>
					<dim>128</dim>
					<dim>64</dim>
				</port>
				<port id="1"/>
				<port id="2"/>
				<port id="3"/>
				<port id="4"/>
			</input>
			<output>
				<port id="5" precision="FP32">
					<dim>1</dim>
					<dim>32</dim>
					<dim>128</dim>
					<dim>64</dim>
				</port>
			</output>
		</layer>
		<layer id="68" name="567" type="MaxPool" version="opset8">
			<data strides="2,2" kernel="3,3" pads_begin="1,1" pads_end="1,1" rounding_type="floor" auto_pad="explicit" dilations="1,1" axis="0" index_element_type="i64"/>
			<input>
				<port id="0">
					<dim>1</dim>
					<dim>32</dim>
					<dim>128</dim>
					<dim>64</dim>
				</port>
			</input>
			<output>
				<port id="1" precision="FP32" names="567">
					<dim>1</dim>
					<dim>32</dim>
					<dim>64</dim>
					<dim>32</dim>
				</port>
				<port id="2" precision="FP32">
					<dim>1</dim>
					<dim>32</dim>
					<dim>64</dim>
					<dim>32</dim>
					<rt_info/>
				</port>
			</output>
		</layer>
		<layer id="70" name="108481085235209" type="Const" version="opset1">
			<data offset="5194" size="4" shape="" element_type="f32"/>
			<output>
				<port id="0" precision="FP32"/>
			</output>
		</layer>
		<layer id="71" name="108491085337036" type="Const" version="opset1">
			<data offset="5198" size="4" shape="" element_type="f32"/>
			<output>
				<port id="0" precision="FP32"/>
			</output>
		</layer>
		<layer id="72" name="108501085436025" type="Const" version="opset1">
			<data offset="5194" size="4" shape="" element_type="f32"/>
			<output>
				<port id="0" precision="FP32"/>
			</output>
		</layer>
		<layer id="73" name="108511085535812" type="Const" version="opset1">
			<data offset="5198" size="4" shape="" element_type="f32"/>
			<output>
				<port id="0" precision="FP32"/>
			</output>
		</layer>
		<layer id="74" name="1134232136442" type="Const" version="opset1">
			<data offset="5202" size="16" shape="2" element_type="i64"/>
			<output>
				<port id="0" precision="I64" names="1134">
					<dim>2</dim>
				</port>
			</output>
		</layer>
		<layer id="75" name="106181062235335" type="Const" version="opset1">
			<data offset="5218" size="4" shape="" element_type="f32"/>
			<output>
				<port id="0" precision="FP32"/>
			</output>
		</layer>
		<layer id="76" name="106191062337645" type="Const" version="opset1">
			<data offset="5222" size="4" shape="" element_type="f32"/>
			<output>
				<port id="0" precision="FP32"/>
			</output>
		</layer>
		<layer id="77" name="106201062434846" type="Const" version="opset1">
			<data offset="5218" size="4" shape="" element_type="f32"/>
			<output>
				<port id="0" precision="FP32"/>
			</output>
		</layer>
		<layer id="78" name="106211062539322" type="Const" version="opset1">
			<data offset="5222" size="4" shape="" element_type="f32"/>
			<output>
				<port id="0" precision="FP32"/>
			</output>
		</layer>
		<layer id="79" name="4245424935179" type="Const" version="opset1">
			<data offset="5226" size="1024" shape="1,256,1,1" element_type="f32"/>
			<output>
				<port id="0" precision="FP32">
					<dim>1</dim>
					<dim>256</dim>
					<dim>1</dim>
					<dim>1</dim>
				</port>
			</output>
		</layer>
		<layer id="80" name="4246425038713" type="Const" version="opset1">
			<data offset="6250" size="1024" shape="1,256,1,1" element_type="f32"/>
			<output>
				<port id="0" precision="FP32">
					<dim>1</dim>
					<dim>256</dim>
					<dim>1</dim>
					<dim>1</dim>
				</port>
			</output>
		</layer>
		<layer id="81" name="4247425136694" type="Const" version="opset1">
			<data offset="5226" size="1024" shape="1,256,1,1" element_type="f32"/>
			<output>
				<port id="0" precision="FP32">
					<dim>1</dim>
					<dim>256</dim>
					<dim>1</dim>
					<dim>1</dim>
				</port>
			</output>
		</layer>
		<layer id="82" name="4248425237813" type="Const" version="opset1">
			<data offset="6250" size="1024" shape="1,256,1,1" element_type="f32"/>
			<output>
				<port id="0" precision="FP32">
					<dim>1</dim>
					<dim>256</dim>
					<dim>1</dim>
					<dim>1</dim>
				</port>
			</output>
		</layer>
		<layer id="83" name="6365636937981" type="Const" version="opset1">
			<data offset="0" size="4" shape="" element_type="f32"/>
			<output>
				<port id="0" precision="FP32"/>
			</output>
		</layer>
		<layer id="84" name="6366637036316" type="Const" version="opset1">
			<data offset="7274" size="4" shape="" element_type="f32"/>
			<output>
				<port id="0" precision="FP32"/>
			</output>
		</layer>
		<layer id="85" name="6367637135035" type="Const" version="opset1">
			<data offset="0" size="4" shape="" element_type="f32"/>
			<output>
				<port id="0" precision="FP32"/>
			</output>
		</layer>
		<layer id="86" name="6368637238893" type="Const" version="opset1">
			<data offset="7274" size="4" shape="" element_type="f32"/>
			<output>
				<port id="0" precision="FP32"/>
			</output>
		</layer>
		<layer id="87" name="6745674939091" type="Const" version="opset1">
			<data offset="7278" size="4" shape="" element_type="f32"/>
			<output>
				<port id="0" precision="FP32"/>
			</output>
		</layer>
		<layer id="88" name="6746675038944" type="Const" version="opset1">
			<data offset="7282" size="4" shape="" element_type="f32"/>
			<output>
				<port id="0" precision="FP32"/>
			</output>
		</layer>
		<layer id="89" name="6747675137165" type="Const" version="opset1">
			<data offset="7278" size="4" shape="" element_type="f32"/>
			<output>
				<port id="0" precision="FP32"/>
			</output>
		</layer>
		<layer id="90" name="6748675237567" type="Const" version="opset1">
			<data offset="7282" size="4" shape="" element_type="f32"/>
			<output>
				<port id="0" precision="FP32"/>
			</output>
		</layer>
		<layer id="91" name="5955595935428" type="Const" version="opset1">
			<data offset="0" size="4" shape="" element_type="f32"/>
			<output>
				<port id="0" precision="FP32"/>
			</output>
		</layer>
		<layer id="92" name="5956596038656" type="Const" version="opset1">
			<data offset="7286" size="4" shape="" element_type="f32"/>
			<output>
				<port id="0" precision="FP32"/>
			</output>
		</layer>
		<layer id="93" name="5957596137924" type="Const" version="opset1">
			<data offset="0" size="4" shape="" element_type="f32"/>
			<output>
				<port id="0" precision="FP32"/>
			</output>
		</layer>
		<layer id="94" name="5958596236019" type="Const" version="opset1">
			<data offset="7286" size="4" shape="" element_type="f32"/>
			<output>
				<port id="0" precision="FP32"/>
			</output>
		</layer>
		<layer id="95" name="8335833938422" type="Const" version="opset1">
			<data offset="0" size="4" shape="" element_type="f32"/>
			<output>
				<port id="0" precision="FP32"/>
			</output>
		</layer>
		<layer id="96" name="8336834037435" type="Const" version="opset1">
			<data offset="7290" size="4" shape="" element_type="f32"/>
			<output>
				<port id="0" precision="FP32"/>
			</output>
		</layer>
		<layer id="97" name="8337834134861" type="Const" version="opset1">
			<data offset="0" size="4" shape="" element_type="f32"/>
			<output>
				<port id="0" precision="FP32"/>
			</output>
		</layer>
		<layer id="98" name="8338834236760" type="Const" version="opset1">
			<data offset="7290" size="4" shape="" element_type="f32"/>
			<output>
				<port id="0" precision="FP32"/>
			</output>
		</layer>
		<layer id="99" name="5635563936259" type="Const" version="opset1">
			<data offset="0" size="4" shape="" element_type="f32"/>
			<output>
				<port id="0" precision="FP32"/>
			</output>
		</layer>
		<layer id="100" name="5636564039271" type="Const" version="opset1">
			<data offset="7294" size="4" shape="" element_type="f32"/>
			<output>
				<port id="0" precision="FP32"/>
			</output>
		</layer>
		<layer id="101" name="5637564137639" type="Const" version="opset1">
			<data offset="0" size="4" shape="" element_type="f32"/>
			<output>
				<port id="0" precision="FP32"/>
			</output>
		</layer>
		<layer id="102" name="5638564238446" type="Const" version="opset1">
			<data offset="7294" size="4" shape="" element_type="f32"/>
			<output>
				<port id="0" precision="FP32"/>
			</output>
		</layer>
		<layer id="103" name="4825482936262" type="Const" version="opset1">
			<data offset="0" size="4" shape="" element_type="f32"/>
			<output>
				<port id="0" precision="FP32"/>
			</output>
		</layer>
		<layer id="104" name="4826483038644" type="Const" version="opset1">
			<data offset="7298" size="4" shape="" element_type="f32"/>
			<output>
				<port id="0" precision="FP32"/>
			</output>
		</layer>
		<layer id="105" name="4827483137351" type="Const" version="opset1">
			<data offset="0" size="4" shape="" element_type="f32"/>
			<output>
				<port id="0" precision="FP32"/>
			</output>
		</layer>
		<layer id="106" name="4828483237201" type="Const" version="opset1">
			<data offset="7298" size="4" shape="" element_type="f32"/>
			<output>
				<port id="0" precision="FP32"/>
			</output>
		</layer>
		<layer id="107" name="6665666939130" type="Const" version="opset1">
			<data offset="0" size="4" shape="" element_type="f32"/>
			<output>
				<port id="0" precision="FP32"/>
			</output>
		</layer>
		<layer id="108" name="6666667035488" type="Const" version="opset1">
			<data offset="7302" size="4" shape="" element_type="f32"/>
			<output>
				<port id="0" precision="FP32"/>
			</output>
		</layer>
		<layer id="109" name="6667667139178" type="Const" version="opset1">
			<data offset="0" size="4" shape="" element_type="f32"/>
			<output>
				<port id="0" precision="FP32"/>
			</output>
		</layer>
		<layer id="110" name="6668667235986" type="Const" version="opset1">
			<data offset="7302" size="4" shape="" element_type="f32"/>
			<output>
				<port id="0" precision="FP32"/>
			</output>
		</layer>
		<layer id="111" name="105781058237054" type="Const" version="opset1">
			<data offset="7306" size="4" shape="" element_type="f32"/>
			<output>
				<port id="0" precision="FP32"/>
			</output>
		</layer>
		<layer id="112" name="105791058336289" type="Const" version="opset1">
			<data offset="7310" size="4" shape="" element_type="f32"/>
			<output>
				<port id="0" precision="FP32"/>
			</output>
		</layer>
		<layer id="113" name="105801058436784" type="Const" version="opset1">
			<data offset="7306" size="4" shape="" element_type="f32"/>
			<output>
				<port id="0" precision="FP32"/>
			</output>
		</layer>
		<layer id="114" name="105811058538059" type="Const" version="opset1">
			<data offset="7310" size="4" shape="" element_type="f32"/>
			<output>
				<port id="0" precision="FP32"/>
			</output>
		</layer>
		<layer id="115" name="Constant_3675214735560" type="Const" version="opset1">
			<data offset="7314" size="8" shape="1" element_type="i64"/>
			<output>
				<port id="0" precision="I64">
					<dim>1</dim>
				</port>
			</output>
		</layer>
		<layer id="116" name="1062214537756" type="Const" version="opset1">
			<data offset="7322" size="24" shape="3" element_type="i64"/>
			<output>
				<port id="0" precision="I64" names="1062">
					<dim>3</dim>
				</port>
			</output>
		</layer>
		<layer id="117" name="107881079235695" type="Const" version="opset1">
			<data offset="0" size="4" shape="" element_type="f32"/>
			<output>
				<port id="0" precision="FP32"/>
			</output>
		</layer>
		<layer id="118" name="107891079336238" type="Const" version="opset1">
			<data offset="7346" size="4" shape="" element_type="f32"/>
			<output>
				<port id="0" precision="FP32"/>
			</output>
		</layer>
		<layer id="119" name="107901079439391" type="Const" version="opset1">
			<data offset="0" size="4" shape="" element_type="f32"/>
			<output>
				<port id="0" precision="FP32"/>
			</output>
		</layer>
		<layer id="120" name="107911079538233" type="Const" version="opset1">
			<data offset="7346" size="4" shape="" element_type="f32"/>
			<output>
				<port id="0" precision="FP32"/>
			</output>
		</layer>
		<layer id="121" name="4535453935434" type="Const" version="opset1">
			<data offset="0" size="4" shape="" element_type="f32"/>
			<output>
				<port id="0" precision="FP32"/>
			</output>
		</layer>
		<layer id="122" name="4536454037312" type="Const" version="opset1">
			<data offset="7350" size="4" shape="" element_type="f32"/>
			<output>
				<port id="0" precision="FP32"/>
			</output>
		</layer>
		<layer id="123" name="4537454138587" type="Const" version="opset1">
			<data offset="0" size="4" shape="" element_type="f32"/>
			<output>
				<port id="0" precision="FP32"/>
			</output>
		</layer>
		<layer id="124" name="4538454236865" type="Const" version="opset1">
			<data offset="7350" size="4" shape="" element_type="f32"/>
			<output>
				<port id="0" precision="FP32"/>
			</output>
		</layer>
		<layer id="125" name="7575757935740" type="Const" version="opset1">
			<data offset="7354" size="256" shape="1,64,1,1" element_type="f32"/>
			<output>
				<port id="0" precision="FP32">
					<dim>1</dim>
					<dim>64</dim>
					<dim>1</dim>
					<dim>1</dim>
				</port>
			</output>
		</layer>
		<layer id="126" name="7576758038257" type="Const" version="opset1">
			<data offset="7610" size="256" shape="1,64,1,1" element_type="f32"/>
			<output>
				<port id="0" precision="FP32">
					<dim>1</dim>
					<dim>64</dim>
					<dim>1</dim>
					<dim>1</dim>
				</port>
			</output>
		</layer>
		<layer id="127" name="7577758136040" type="Const" version="opset1">
			<data offset="7354" size="256" shape="1,64,1,1" element_type="f32"/>
			<output>
				<port id="0" precision="FP32">
					<dim>1</dim>
					<dim>64</dim>
					<dim>1</dim>
					<dim>1</dim>
				</port>
			</output>
		</layer>
		<layer id="128" name="7578758235947" type="Const" version="opset1">
			<data offset="7610" size="256" shape="1,64,1,1" element_type="f32"/>
			<output>
				<port id="0" precision="FP32">
					<dim>1</dim>
					<dim>64</dim>
					<dim>1</dim>
					<dim>1</dim>
				</port>
			</output>
		</layer>
		<layer id="129" name="3238324038674" type="Const" version="opset1">
			<data offset="7866" size="256" shape="1,64,1,1" element_type="f32"/>
			<output>
				<port id="0" precision="FP32">
					<dim>1</dim>
					<dim>64</dim>
					<dim>1</dim>
					<dim>1</dim>
				</port>
			</output>
		</layer>
		<layer id="130" name="7345734936472" type="Const" version="opset1">
			<data offset="0" size="4" shape="" element_type="f32"/>
			<output>
				<port id="0" precision="FP32"/>
			</output>
		</layer>
		<layer id="131" name="7346735036430" type="Const" version="opset1">
			<data offset="8122" size="4" shape="" element_type="f32"/>
			<output>
				<port id="0" precision="FP32"/>
			</output>
		</layer>
		<layer id="132" name="7347735136382" type="Const" version="opset1">
			<data offset="0" size="4" shape="" element_type="f32"/>
			<output>
				<port id="0" precision="FP32"/>
			</output>
		</layer>
		<layer id="133" name="7348735236787" type="Const" version="opset1">
			<data offset="8122" size="4" shape="" element_type="f32"/>
			<output>
				<port id="0" precision="FP32"/>
			</output>
		</layer>
		<layer id="134" name="6755675935950" type="Const" version="opset1">
			<data offset="0" size="4" shape="" element_type="f32"/>
			<output>
				<port id="0" precision="FP32"/>
			</output>
		</layer>
		<layer id="135" name="6756676036586" type="Const" version="opset1">
			<data offset="8126" size="4" shape="" element_type="f32"/>
			<output>
				<port id="0" precision="FP32"/>
			</output>
		</layer>
		<layer id="136" name="6757676138164" type="Const" version="opset1">
			<data offset="0" size="4" shape="" element_type="f32"/>
			<output>
				<port id="0" precision="FP32"/>
			</output>
		</layer>
		<layer id="137" name="6758676237042" type="Const" version="opset1">
			<data offset="8126" size="4" shape="" element_type="f32"/>
			<output>
				<port id="0" precision="FP32"/>
			</output>
		</layer>
		<layer id="138" name="6705670936004" type="Const" version="opset1">
			<data offset="8130" size="4" shape="" element_type="f32"/>
			<output>
				<port id="0" precision="FP32"/>
			</output>
		</layer>
		<layer id="139" name="6706671039319" type="Const" version="opset1">
			<data offset="8134" size="4" shape="" element_type="f32"/>
			<output>
				<port id="0" precision="FP32"/>
			</output>
		</layer>
		<layer id="140" name="6707671136607" type="Const" version="opset1">
			<data offset="8130" size="4" shape="" element_type="f32"/>
			<output>
				<port id="0" precision="FP32"/>
			</output>
		</layer>
		<layer id="141" name="6708671236721" type="Const" version="opset1">
			<data offset="8134" size="4" shape="" element_type="f32"/>
			<output>
				<port id="0" precision="FP32"/>
			</output>
		</layer>
		<layer id="142" name="5465546938320" type="Const" version="opset1">
			<data offset="0" size="4" shape="" element_type="f32"/>
			<output>
				<port id="0" precision="FP32"/>
			</output>
		</layer>
		<layer id="143" name="5466547039049" type="Const" version="opset1">
			<data offset="8138" size="4" shape="" element_type="f32"/>
			<output>
				<port id="0" precision="FP32"/>
			</output>
		</layer>
		<layer id="144" name="5467547139223" type="Const" version="opset1">
			<data offset="0" size="4" shape="" element_type="f32"/>
			<output>
				<port id="0" precision="FP32"/>
			</output>
		</layer>
		<layer id="145" name="5468547236820" type="Const" version="opset1">
			<data offset="8138" size="4" shape="" element_type="f32"/>
			<output>
				<port id="0" precision="FP32"/>
			</output>
		</layer>
		<layer id="146" name="6305630938788" type="Const" version="opset1">
			<data offset="0" size="4" shape="" element_type="f32"/>
			<output>
				<port id="0" precision="FP32"/>
			</output>
		</layer>
		<layer id="147" name="6306631038512" type="Const" version="opset1">
			<data offset="8142" size="4" shape="" element_type="f32"/>
			<output>
				<port id="0" precision="FP32"/>
			</output>
		</layer>
		<layer id="148" name="6307631135722" type="Const" version="opset1">
			<data offset="0" size="4" shape="" element_type="f32"/>
			<output>
				<port id="0" precision="FP32"/>
			</output>
		</layer>
		<layer id="149" name="6308631236445" type="Const" version="opset1">
			<data offset="8142" size="4" shape="" element_type="f32"/>
			<output>
				<port id="0" precision="FP32"/>
			</output>
		</layer>
		<layer id="150" name="5545554936283" type="Const" version="opset1">
			<data offset="0" size="4" shape="" element_type="f32"/>
			<output>
				<port id="0" precision="FP32"/>
			</output>
		</layer>
		<layer id="151" name="5546555039340" type="Const" version="opset1">
			<data offset="8146" size="4" shape="" element_type="f32"/>
			<output>
				<port id="0" precision="FP32"/>
			</output>
		</layer>
		<layer id="152" name="5547555136481" type="Const" version="opset1">
			<data offset="0" size="4" shape="" element_type="f32"/>
			<output>
				<port id="0" precision="FP32"/>
			</output>
		</layer>
		<layer id="153" name="5548555236085" type="Const" version="opset1">
			<data offset="8146" size="4" shape="" element_type="f32"/>
			<output>
				<port id="0" precision="FP32"/>
			</output>
		</layer>
		<layer id="154" name="6265626935479" type="Const" version="opset1">
			<data offset="0" size="4" shape="" element_type="f32"/>
			<output>
				<port id="0" precision="FP32"/>
			</output>
		</layer>
		<layer id="155" name="6266627037729" type="Const" version="opset1">
			<data offset="8150" size="4" shape="" element_type="f32"/>
			<output>
				<port id="0" precision="FP32"/>
			</output>
		</layer>
		<layer id="156" name="6267627136448" type="Const" version="opset1">
			<data offset="0" size="4" shape="" element_type="f32"/>
			<output>
				<port id="0" precision="FP32"/>
			</output>
		</layer>
		<layer id="157" name="6268627235518" type="Const" version="opset1">
			<data offset="8150" size="4" shape="" element_type="f32"/>
			<output>
				<port id="0" precision="FP32"/>
			</output>
		</layer>
		<layer id="158" name="8255825935953" type="Const" version="opset1">
			<data offset="0" size="4" shape="" element_type="f32"/>
			<output>
				<port id="0" precision="FP32"/>
			</output>
		</layer>
		<layer id="159" name="8256826038536" type="Const" version="opset1">
			<data offset="8154" size="4" shape="" element_type="f32"/>
			<output>
				<port id="0" precision="FP32"/>
			</output>
		</layer>
		<layer id="160" name="8257826135761" type="Const" version="opset1">
			<data offset="0" size="4" shape="" element_type="f32"/>
			<output>
				<port id="0" precision="FP32"/>
			</output>
		</layer>
		<layer id="161" name="8258826235896" type="Const" version="opset1">
			<data offset="8154" size="4" shape="" element_type="f32"/>
			<output>
				<port id="0" precision="FP32"/>
			</output>
		</layer>
		<layer id="162" name="6245624934759" type="Const" version="opset1">
			<data offset="0" size="4" shape="" element_type="f32"/>
			<output>
				<port id="0" precision="FP32"/>
			</output>
		</layer>
		<layer id="163" name="6246625035458" type="Const" version="opset1">
			<data offset="8158" size="4" shape="" element_type="f32"/>
			<output>
				<port id="0" precision="FP32"/>
			</output>
		</layer>
		<layer id="164" name="6247625139076" type="Const" version="opset1">
			<data offset="0" size="4" shape="" element_type="f32"/>
			<output>
				<port id="0" precision="FP32"/>
			</output>
		</layer>
		<layer id="165" name="6248625237744" type="Const" version="opset1">
			<data offset="8158" size="4" shape="" element_type="f32"/>
			<output>
				<port id="0" precision="FP32"/>
			</output>
		</layer>
		<layer id="166" name="6225622938599" type="Const" version="opset1">
			<data offset="8162" size="256" shape="1,64,1,1" element_type="f32"/>
			<output>
				<port id="0" precision="FP32">
					<dim>1</dim>
					<dim>64</dim>
					<dim>1</dim>
					<dim>1</dim>
				</port>
			</output>
		</layer>
		<layer id="167" name="6226623034825" type="Const" version="opset1">
			<data offset="8418" size="256" shape="1,64,1,1" element_type="f32"/>
			<output>
				<port id="0" precision="FP32">
					<dim>1</dim>
					<dim>64</dim>
					<dim>1</dim>
					<dim>1</dim>
				</port>
			</output>
		</layer>
		<layer id="168" name="6227623139100" type="Const" version="opset1">
			<data offset="8162" size="256" shape="1,64,1,1" element_type="f32"/>
			<output>
				<port id="0" precision="FP32">
					<dim>1</dim>
					<dim>64</dim>
					<dim>1</dim>
					<dim>1</dim>
				</port>
			</output>
		</layer>
		<layer id="169" name="6228623237087" type="Const" version="opset1">
			<data offset="8418" size="256" shape="1,64,1,1" element_type="f32"/>
			<output>
				<port id="0" precision="FP32">
					<dim>1</dim>
					<dim>64</dim>
					<dim>1</dim>
					<dim>1</dim>
				</port>
			</output>
		</layer>
		<layer id="170" name="3198320038533" type="Const" version="opset1">
			<data offset="7866" size="256" shape="1,64,1,1" element_type="f32"/>
			<output>
				<port id="0" precision="FP32">
					<dim>1</dim>
					<dim>64</dim>
					<dim>1</dim>
					<dim>1</dim>
				</port>
			</output>
		</layer>
		<layer id="171" name="5615561935032" type="Const" version="opset1">
			<data offset="0" size="4" shape="" element_type="f32"/>
			<output>
				<port id="0" precision="FP32"/>
			</output>
		</layer>
		<layer id="172" name="5616562039052" type="Const" version="opset1">
			<data offset="8674" size="4" shape="" element_type="f32"/>
			<output>
				<port id="0" precision="FP32"/>
			</output>
		</layer>
		<layer id="173" name="5617562135701" type="Const" version="opset1">
			<data offset="0" size="4" shape="" element_type="f32"/>
			<output>
				<port id="0" precision="FP32"/>
			</output>
		</layer>
		<layer id="174" name="5618562238359" type="Const" version="opset1">
			<data offset="8674" size="4" shape="" element_type="f32"/>
			<output>
				<port id="0" precision="FP32"/>
			</output>
		</layer>
		<layer id="175" name="5335533936940" type="Const" version="opset1">
			<data offset="0" size="4" shape="" element_type="f32"/>
			<output>
				<port id="0" precision="FP32"/>
			</output>
		</layer>
		<layer id="176" name="5336534035251" type="Const" version="opset1">
			<data offset="8678" size="4" shape="" element_type="f32"/>
			<output>
				<port id="0" precision="FP32"/>
			</output>
		</layer>
		<layer id="177" name="5337534137687" type="Const" version="opset1">
			<data offset="0" size="4" shape="" element_type="f32"/>
			<output>
				<port id="0" precision="FP32"/>
			</output>
		</layer>
		<layer id="178" name="5338534236394" type="Const" version="opset1">
			<data offset="8678" size="4" shape="" element_type="f32"/>
			<output>
				<port id="0" precision="FP32"/>
			</output>
		</layer>
		<layer id="179" name="6015601937936" type="Const" version="opset1">
			<data offset="0" size="4" shape="" element_type="f32"/>
			<output>
				<port id="0" precision="FP32"/>
			</output>
		</layer>
		<layer id="180" name="6016602038647" type="Const" version="opset1">
			<data offset="8682" size="4" shape="" element_type="f32"/>
			<output>
				<port id="0" precision="FP32"/>
			</output>
		</layer>
		<layer id="181" name="6017602138383" type="Const" version="opset1">
			<data offset="0" size="4" shape="" element_type="f32"/>
			<output>
				<port id="0" precision="FP32"/>
			</output>
		</layer>
		<layer id="182" name="6018602236937" type="Const" version="opset1">
			<data offset="8682" size="4" shape="" element_type="f32"/>
			<output>
				<port id="0" precision="FP32"/>
			</output>
		</layer>
		<layer id="183" name="6995699935476" type="Const" version="opset1">
			<data offset="0" size="4" shape="" element_type="f32"/>
			<output>
				<port id="0" precision="FP32"/>
			</output>
		</layer>
		<layer id="184" name="6996700034972" type="Const" version="opset1">
			<data offset="8686" size="4" shape="" element_type="f32"/>
			<output>
				<port id="0" precision="FP32"/>
			</output>
		</layer>
		<layer id="185" name="6997700136901" type="Const" version="opset1">
			<data offset="0" size="4" shape="" element_type="f32"/>
			<output>
				<port id="0" precision="FP32"/>
			</output>
		</layer>
		<layer id="186" name="6998700238263" type="Const" version="opset1">
			<data offset="8686" size="4" shape="" element_type="f32"/>
			<output>
				<port id="0" precision="FP32"/>
			</output>
		</layer>
		<layer id="187" name="6765676934807" type="Const" version="opset1">
			<data offset="8690" size="4" shape="" element_type="f32"/>
			<output>
				<port id="0" precision="FP32"/>
			</output>
		</layer>
		<layer id="188" name="6766677035992" type="Const" version="opset1">
			<data offset="8694" size="4" shape="" element_type="f32"/>
			<output>
				<port id="0" precision="FP32"/>
			</output>
		</layer>
		<layer id="189" name="6767677137045" type="Const" version="opset1">
			<data offset="8690" size="4" shape="" element_type="f32"/>
			<output>
				<port id="0" precision="FP32"/>
			</output>
		</layer>
		<layer id="190" name="6768677235710" type="Const" version="opset1">
			<data offset="8694" size="4" shape="" element_type="f32"/>
			<output>
				<port id="0" precision="FP32"/>
			</output>
		</layer>
		<layer id="191" name="6685668938248" type="Const" version="opset1">
			<data offset="0" size="4" shape="" element_type="f32"/>
			<output>
				<port id="0" precision="FP32"/>
			</output>
		</layer>
		<layer id="192" name="6686669037927" type="Const" version="opset1">
			<data offset="8698" size="4" shape="" element_type="f32"/>
			<output>
				<port id="0" precision="FP32"/>
			</output>
		</layer>
		<layer id="193" name="6687669134819" type="Const" version="opset1">
			<data offset="0" size="4" shape="" element_type="f32"/>
			<output>
				<port id="0" precision="FP32"/>
			</output>
		</layer>
		<layer id="194" name="6688669239238" type="Const" version="opset1">
			<data offset="8698" size="4" shape="" element_type="f32"/>
			<output>
				<port id="0" precision="FP32"/>
			</output>
		</layer>
		<layer id="195" name="6975697936916" type="Const" version="opset1">
			<data offset="0" size="4" shape="" element_type="f32"/>
			<output>
				<port id="0" precision="FP32"/>
			</output>
		</layer>
		<layer id="196" name="6976698037513" type="Const" version="opset1">
			<data offset="8702" size="4" shape="" element_type="f32"/>
			<output>
				<port id="0" precision="FP32"/>
			</output>
		</layer>
		<layer id="197" name="6977698138314" type="Const" version="opset1">
			<data offset="0" size="4" shape="" element_type="f32"/>
			<output>
				<port id="0" precision="FP32"/>
			</output>
		</layer>
		<layer id="198" name="6978698237495" type="Const" version="opset1">
			<data offset="8702" size="4" shape="" element_type="f32"/>
			<output>
				<port id="0" precision="FP32"/>
			</output>
		</layer>
		<layer id="199" name="5865586937285" type="Const" version="opset1">
			<data offset="0" size="4" shape="" element_type="f32"/>
			<output>
				<port id="0" precision="FP32"/>
			</output>
		</layer>
		<layer id="200" name="5866587038839" type="Const" version="opset1">
			<data offset="8706" size="4" shape="" element_type="f32"/>
			<output>
				<port id="0" precision="FP32"/>
			</output>
		</layer>
		<layer id="201" name="5867587137225" type="Const" version="opset1">
			<data offset="0" size="4" shape="" element_type="f32"/>
			<output>
				<port id="0" precision="FP32"/>
			</output>
		</layer>
		<layer id="202" name="5868587238041" type="Const" version="opset1">
			<data offset="8706" size="4" shape="" element_type="f32"/>
			<output>
				<port id="0" precision="FP32"/>
			</output>
		</layer>
		<layer id="203" name="6385638938284" type="Const" version="opset1">
			<data offset="0" size="4" shape="" element_type="f32"/>
			<output>
				<port id="0" precision="FP32"/>
			</output>
		</layer>
		<layer id="204" name="6386639034993" type="Const" version="opset1">
			<data offset="8710" size="4" shape="" element_type="f32"/>
			<output>
				<port id="0" precision="FP32"/>
			</output>
		</layer>
		<layer id="205" name="6387639138731" type="Const" version="opset1">
			<data offset="0" size="4" shape="" element_type="f32"/>
			<output>
				<port id="0" precision="FP32"/>
			</output>
		</layer>
		<layer id="206" name="6388639234840" type="Const" version="opset1">
			<data offset="8710" size="4" shape="" element_type="f32"/>
			<output>
				<port id="0" precision="FP32"/>
			</output>
		</layer>
		<layer id="207" name="7755775935395" type="Const" version="opset1">
			<data offset="0" size="4" shape="" element_type="f32"/>
			<output>
				<port id="0" precision="FP32"/>
			</output>
		</layer>
		<layer id="208" name="7756776036280" type="Const" version="opset1">
			<data offset="8714" size="4" shape="" element_type="f32"/>
			<output>
				<port id="0" precision="FP32"/>
			</output>
		</layer>
		<layer id="209" name="7757776137267" type="Const" version="opset1">
			<data offset="0" size="4" shape="" element_type="f32"/>
			<output>
				<port id="0" precision="FP32"/>
			</output>
		</layer>
		<layer id="210" name="7758776235737" type="Const" version="opset1">
			<data offset="8714" size="4" shape="" element_type="f32"/>
			<output>
				<port id="0" precision="FP32"/>
			</output>
		</layer>
		<layer id="211" name="106681067235392" type="Const" version="opset1">
			<data offset="8718" size="4" shape="" element_type="f32"/>
			<output>
				<port id="0" precision="FP32"/>
			</output>
		</layer>
		<layer id="212" name="106691067335584" type="Const" version="opset1">
			<data offset="8722" size="4" shape="" element_type="f32"/>
			<output>
				<port id="0" precision="FP32"/>
			</output>
		</layer>
		<layer id="213" name="106701067438557" type="Const" version="opset1">
			<data offset="8718" size="4" shape="" element_type="f32"/>
			<output>
				<port id="0" precision="FP32"/>
			</output>
		</layer>
		<layer id="214" name="106711067535911" type="Const" version="opset1">
			<data offset="8722" size="4" shape="" element_type="f32"/>
			<output>
				<port id="0" precision="FP32"/>
			</output>
		</layer>
		<layer id="215" name="Constant_2583177737549" type="Const" version="opset1">
			<data offset="7314" size="8" shape="1" element_type="i64"/>
			<output>
				<port id="0" precision="I64">
					<dim>1</dim>
				</port>
			</output>
		</layer>
		<layer id="216" name="875177535758" type="Const" version="opset1">
			<data offset="7322" size="24" shape="3" element_type="i64"/>
			<output>
				<port id="0" precision="I64" names="875">
					<dim>3</dim>
				</port>
			</output>
		</layer>
		<layer id="217" name="107481075237399" type="Const" version="opset1">
			<data offset="0" size="4" shape="" element_type="f32"/>
			<output>
				<port id="0" precision="FP32"/>
			</output>
		</layer>
		<layer id="218" name="107491075338989" type="Const" version="opset1">
			<data offset="8726" size="4" shape="" element_type="f32"/>
			<output>
				<port id="0" precision="FP32"/>
			</output>
		</layer>
		<layer id="219" name="107501075436214" type="Const" version="opset1">
			<data offset="0" size="4" shape="" element_type="f32"/>
			<output>
				<port id="0" precision="FP32"/>
			</output>
		</layer>
		<layer id="220" name="107511075538539" type="Const" version="opset1">
			<data offset="8726" size="4" shape="" element_type="f32"/>
			<output>
				<port id="0" precision="FP32"/>
			</output>
		</layer>
		<layer id="221" name="7615761935890" type="Const" version="opset1">
			<data offset="0" size="4" shape="" element_type="f32"/>
			<output>
				<port id="0" precision="FP32"/>
			</output>
		</layer>
		<layer id="222" name="7616762037135" type="Const" version="opset1">
			<data offset="8730" size="4" shape="" element_type="f32"/>
			<output>
				<port id="0" precision="FP32"/>
			</output>
		</layer>
		<layer id="223" name="7617762136226" type="Const" version="opset1">
			<data offset="0" size="4" shape="" element_type="f32"/>
			<output>
				<port id="0" precision="FP32"/>
			</output>
		</layer>
		<layer id="224" name="7618762236829" type="Const" version="opset1">
			<data offset="8730" size="4" shape="" element_type="f32"/>
			<output>
				<port id="0" precision="FP32"/>
			</output>
		</layer>
		<layer id="225" name="7125712939277" type="Const" version="opset1">
			<data offset="8734" size="192" shape="1,48,1,1" element_type="f32"/>
			<output>
				<port id="0" precision="FP32">
					<dim>1</dim>
					<dim>48</dim>
					<dim>1</dim>
					<dim>1</dim>
				</port>
			</output>
		</layer>
		<layer id="226" name="7126713035101" type="Const" version="opset1">
			<data offset="8926" size="192" shape="1,48,1,1" element_type="f32"/>
			<output>
				<port id="0" precision="FP32">
					<dim>1</dim>
					<dim>48</dim>
					<dim>1</dim>
					<dim>1</dim>
				</port>
			</output>
		</layer>
		<layer id="227" name="7127713136364" type="Const" version="opset1">
			<data offset="8734" size="192" shape="1,48,1,1" element_type="f32"/>
			<output>
				<port id="0" precision="FP32">
					<dim>1</dim>
					<dim>48</dim>
					<dim>1</dim>
					<dim>1</dim>
				</port>
			</output>
		</layer>
		<layer id="228" name="7128713239421" type="Const" version="opset1">
			<data offset="8926" size="192" shape="1,48,1,1" element_type="f32"/>
			<output>
				<port id="0" precision="FP32">
					<dim>1</dim>
					<dim>48</dim>
					<dim>1</dim>
					<dim>1</dim>
				</port>
			</output>
		</layer>
		<layer id="229" name="3158316038281" type="Const" version="opset1">
			<data offset="9118" size="192" shape="1,48,1,1" element_type="f32"/>
			<output>
				<port id="0" precision="FP32">
					<dim>1</dim>
					<dim>48</dim>
					<dim>1</dim>
					<dim>1</dim>
				</port>
			</output>
		</layer>
		<layer id="230" name="5275527936169" type="Const" version="opset1">
			<data offset="0" size="4" shape="" element_type="f32"/>
			<output>
				<port id="0" precision="FP32"/>
			</output>
		</layer>
		<layer id="231" name="5276528035305" type="Const" version="opset1">
			<data offset="9310" size="4" shape="" element_type="f32"/>
			<output>
				<port id="0" precision="FP32"/>
			</output>
		</layer>
		<layer id="232" name="5277528137891" type="Const" version="opset1">
			<data offset="0" size="4" shape="" element_type="f32"/>
			<output>
				<port id="0" precision="FP32"/>
			</output>
		</layer>
		<layer id="233" name="5278528238725" type="Const" version="opset1">
			<data offset="9310" size="4" shape="" element_type="f32"/>
			<output>
				<port id="0" precision="FP32"/>
			</output>
		</layer>
		<layer id="234" name="6775677938299" type="Const" version="opset1">
			<data offset="0" size="4" shape="" element_type="f32"/>
			<output>
				<port id="0" precision="FP32"/>
			</output>
		</layer>
		<layer id="235" name="6776678038917" type="Const" version="opset1">
			<data offset="9314" size="4" shape="" element_type="f32"/>
			<output>
				<port id="0" precision="FP32"/>
			</output>
		</layer>
		<layer id="236" name="6777678139256" type="Const" version="opset1">
			<data offset="0" size="4" shape="" element_type="f32"/>
			<output>
				<port id="0" precision="FP32"/>
			</output>
		</layer>
		<layer id="237" name="6778678235218" type="Const" version="opset1">
			<data offset="9314" size="4" shape="" element_type="f32"/>
			<output>
				<port id="0" precision="FP32"/>
			</output>
		</layer>
		<layer id="238" name="7305730939343" type="Const" version="opset1">
			<data offset="9318" size="4" shape="" element_type="f32"/>
			<output>
				<port id="0" precision="FP32"/>
			</output>
		</layer>
		<layer id="239" name="7306731038722" type="Const" version="opset1">
			<data offset="9322" size="4" shape="" element_type="f32"/>
			<output>
				<port id="0" precision="FP32"/>
			</output>
		</layer>
		<layer id="240" name="7307731134954" type="Const" version="opset1">
			<data offset="9318" size="4" shape="" element_type="f32"/>
			<output>
				<port id="0" precision="FP32"/>
			</output>
		</layer>
		<layer id="241" name="7308731238662" type="Const" version="opset1">
			<data offset="9322" size="4" shape="" element_type="f32"/>
			<output>
				<port id="0" precision="FP32"/>
			</output>
		</layer>
		<layer id="242" name="4585458937588" type="Const" version="opset1">
			<data offset="0" size="4" shape="" element_type="f32"/>
			<output>
				<port id="0" precision="FP32"/>
			</output>
		</layer>
		<layer id="243" name="4586459039058" type="Const" version="opset1">
			<data offset="9326" size="4" shape="" element_type="f32"/>
			<output>
				<port id="0" precision="FP32"/>
			</output>
		</layer>
		<layer id="244" name="4587459138569" type="Const" version="opset1">
			<data offset="0" size="4" shape="" element_type="f32"/>
			<output>
				<port id="0" precision="FP32"/>
			</output>
		</layer>
		<layer id="245" name="4588459236649" type="Const" version="opset1">
			<data offset="9326" size="4" shape="" element_type="f32"/>
			<output>
				<port id="0" precision="FP32"/>
			</output>
		</layer>
		<layer id="246" name="4115411938011" type="Const" version="opset1">
			<data offset="0" size="4" shape="" element_type="f32"/>
			<output>
				<port id="0" precision="FP32"/>
			</output>
		</layer>
		<layer id="247" name="4116412034996" type="Const" version="opset1">
			<data offset="9330" size="4" shape="" element_type="f32"/>
			<output>
				<port id="0" precision="FP32"/>
			</output>
		</layer>
		<layer id="248" name="4117412136700" type="Const" version="opset1">
			<data offset="0" size="4" shape="" element_type="f32"/>
			<output>
				<port id="0" precision="FP32"/>
			</output>
		</layer>
		<layer id="249" name="4118412234699" type="Const" version="opset1">
			<data offset="9330" size="4" shape="" element_type="f32"/>
			<output>
				<port id="0" precision="FP32"/>
			</output>
		</layer>
		<layer id="250" name="5675567935692" type="Const" version="opset1">
			<data offset="0" size="4" shape="" element_type="f32"/>
			<output>
				<port id="0" precision="FP32"/>
			</output>
		</layer>
		<layer id="251" name="5676568035611" type="Const" version="opset1">
			<data offset="9334" size="4" shape="" element_type="f32"/>
			<output>
				<port id="0" precision="FP32"/>
			</output>
		</layer>
		<layer id="252" name="5677568135887" type="Const" version="opset1">
			<data offset="0" size="4" shape="" element_type="f32"/>
			<output>
				<port id="0" precision="FP32"/>
			</output>
		</layer>
		<layer id="253" name="5678568238356" type="Const" version="opset1">
			<data offset="9334" size="4" shape="" element_type="f32"/>
			<output>
				<port id="0" precision="FP32"/>
			</output>
		</layer>
		<layer id="254" name="4635463936622" type="Const" version="opset1">
			<data offset="0" size="4" shape="" element_type="f32"/>
			<output>
				<port id="0" precision="FP32"/>
			</output>
		</layer>
		<layer id="255" name="4636464037657" type="Const" version="opset1">
			<data offset="9338" size="4" shape="" element_type="f32"/>
			<output>
				<port id="0" precision="FP32"/>
			</output>
		</layer>
		<layer id="256" name="4637464136538" type="Const" version="opset1">
			<data offset="0" size="4" shape="" element_type="f32"/>
			<output>
				<port id="0" precision="FP32"/>
			</output>
		</layer>
		<layer id="257" name="4638464238485" type="Const" version="opset1">
			<data offset="9338" size="4" shape="" element_type="f32"/>
			<output>
				<port id="0" precision="FP32"/>
			</output>
		</layer>
		<layer id="258" name="4185418938125" type="Const" version="opset1">
			<data offset="0" size="4" shape="" element_type="f32"/>
			<output>
				<port id="0" precision="FP32"/>
			</output>
		</layer>
		<layer id="259" name="4186419034720" type="Const" version="opset1">
			<data offset="9342" size="4" shape="" element_type="f32"/>
			<output>
				<port id="0" precision="FP32"/>
			</output>
		</layer>
		<layer id="260" name="4187419135860" type="Const" version="opset1">
			<data offset="0" size="4" shape="" element_type="f32"/>
			<output>
				<port id="0" precision="FP32"/>
			</output>
		</layer>
		<layer id="261" name="4188419237414" type="Const" version="opset1">
			<data offset="9342" size="4" shape="" element_type="f32"/>
			<output>
				<port id="0" precision="FP32"/>
			</output>
		</layer>
		<layer id="262" name="5905590937033" type="Const" version="opset1">
			<data offset="0" size="4" shape="" element_type="f32"/>
			<output>
				<port id="0" precision="FP32"/>
			</output>
		</layer>
		<layer id="263" name="5906591039169" type="Const" version="opset1">
			<data offset="9346" size="4" shape="" element_type="f32"/>
			<output>
				<port id="0" precision="FP32"/>
			</output>
		</layer>
		<layer id="264" name="5907591134798" type="Const" version="opset1">
			<data offset="0" size="4" shape="" element_type="f32"/>
			<output>
				<port id="0" precision="FP32"/>
			</output>
		</layer>
		<layer id="265" name="5908591239247" type="Const" version="opset1">
			<data offset="9346" size="4" shape="" element_type="f32"/>
			<output>
				<port id="0" precision="FP32"/>
			</output>
		</layer>
		<layer id="266" name="4495449938653" type="Const" version="opset1">
			<data offset="9350" size="192" shape="1,48,1,1" element_type="f32"/>
			<output>
				<port id="0" precision="FP32">
					<dim>1</dim>
					<dim>48</dim>
					<dim>1</dim>
					<dim>1</dim>
				</port>
			</output>
		</layer>
		<layer id="267" name="4496450035872" type="Const" version="opset1">
			<data offset="9542" size="192" shape="1,48,1,1" element_type="f32"/>
			<output>
				<port id="0" precision="FP32">
					<dim>1</dim>
					<dim>48</dim>
					<dim>1</dim>
					<dim>1</dim>
				</port>
			</output>
		</layer>
		<layer id="268" name="4497450135884" type="Const" version="opset1">
			<data offset="9350" size="192" shape="1,48,1,1" element_type="f32"/>
			<output>
				<port id="0" precision="FP32">
					<dim>1</dim>
					<dim>48</dim>
					<dim>1</dim>
					<dim>1</dim>
				</port>
			</output>
		</layer>
		<layer id="269" name="4498450237348" type="Const" version="opset1">
			<data offset="9542" size="192" shape="1,48,1,1" element_type="f32"/>
			<output>
				<port id="0" precision="FP32">
					<dim>1</dim>
					<dim>48</dim>
					<dim>1</dim>
					<dim>1</dim>
				</port>
			</output>
		</layer>
		<layer id="270" name="3118312038818" type="Const" version="opset1">
			<data offset="9118" size="192" shape="1,48,1,1" element_type="f32"/>
			<output>
				<port id="0" precision="FP32">
					<dim>1</dim>
					<dim>48</dim>
					<dim>1</dim>
					<dim>1</dim>
				</port>
			</output>
		</layer>
		<layer id="271" name="8315831937003" type="Const" version="opset1">
			<data offset="0" size="4" shape="" element_type="f32"/>
			<output>
				<port id="0" precision="FP32"/>
			</output>
		</layer>
		<layer id="272" name="8316832038044" type="Const" version="opset1">
			<data offset="9734" size="4" shape="" element_type="f32"/>
			<output>
				<port id="0" precision="FP32"/>
			</output>
		</layer>
		<layer id="273" name="8317832137378" type="Const" version="opset1">
			<data offset="0" size="4" shape="" element_type="f32"/>
			<output>
				<port id="0" precision="FP32"/>
			</output>
		</layer>
		<layer id="274" name="8318832238620" type="Const" version="opset1">
			<data offset="9734" size="4" shape="" element_type="f32"/>
			<output>
				<port id="0" precision="FP32"/>
			</output>
		</layer>
		<layer id="275" name="7425742935191" type="Const" version="opset1">
			<data offset="0" size="4" shape="" element_type="f32"/>
			<output>
				<port id="0" precision="FP32"/>
			</output>
		</layer>
		<layer id="276" name="7426743038689" type="Const" version="opset1">
			<data offset="9738" size="4" shape="" element_type="f32"/>
			<output>
				<port id="0" precision="FP32"/>
			</output>
		</layer>
		<layer id="277" name="7427743137084" type="Const" version="opset1">
			<data offset="0" size="4" shape="" element_type="f32"/>
			<output>
				<port id="0" precision="FP32"/>
			</output>
		</layer>
		<layer id="278" name="7428743237471" type="Const" version="opset1">
			<data offset="9738" size="4" shape="" element_type="f32"/>
			<output>
				<port id="0" precision="FP32"/>
			</output>
		</layer>
		<layer id="279" name="5145514938602" type="Const" version="opset1">
			<data offset="0" size="4" shape="" element_type="f32"/>
			<output>
				<port id="0" precision="FP32"/>
			</output>
		</layer>
		<layer id="280" name="5146515038851" type="Const" version="opset1">
			<data offset="9742" size="4" shape="" element_type="f32"/>
			<output>
				<port id="0" precision="FP32"/>
			</output>
		</layer>
		<layer id="281" name="5147515135221" type="Const" version="opset1">
			<data offset="0" size="4" shape="" element_type="f32"/>
			<output>
				<port id="0" precision="FP32"/>
			</output>
		</layer>
		<layer id="282" name="5148515235644" type="Const" version="opset1">
			<data offset="9742" size="4" shape="" element_type="f32"/>
			<output>
				<port id="0" precision="FP32"/>
			</output>
		</layer>
		<layer id="283" name="4685468938038" type="Const" version="opset1">
			<data offset="0" size="4" shape="" element_type="f32"/>
			<output>
				<port id="0" precision="FP32"/>
			</output>
		</layer>
		<layer id="284" name="4686469036223" type="Const" version="opset1">
			<data offset="9746" size="4" shape="" element_type="f32"/>
			<output>
				<port id="0" precision="FP32"/>
			</output>
		</layer>
		<layer id="285" name="4687469135125" type="Const" version="opset1">
			<data offset="0" size="4" shape="" element_type="f32"/>
			<output>
				<port id="0" precision="FP32"/>
			</output>
		</layer>
		<layer id="286" name="4688469235320" type="Const" version="opset1">
			<data offset="9746" size="4" shape="" element_type="f32"/>
			<output>
				<port id="0" precision="FP32"/>
			</output>
		</layer>
		<layer id="287" name="4845484936052" type="Const" version="opset1">
			<data offset="9750" size="4" shape="" element_type="f32"/>
			<output>
				<port id="0" precision="FP32"/>
			</output>
		</layer>
		<layer id="288" name="4846485038242" type="Const" version="opset1">
			<data offset="9754" size="4" shape="" element_type="f32"/>
			<output>
				<port id="0" precision="FP32"/>
			</output>
		</layer>
		<layer id="289" name="4847485137867" type="Const" version="opset1">
			<data offset="9750" size="4" shape="" element_type="f32"/>
			<output>
				<port id="0" precision="FP32"/>
			</output>
		</layer>
		<layer id="290" name="4848485239355" type="Const" version="opset1">
			<data offset="9754" size="4" shape="" element_type="f32"/>
			<output>
				<port id="0" precision="FP32"/>
			</output>
		</layer>
		<layer id="291" name="5565556935224" type="Const" version="opset1">
			<data offset="0" size="4" shape="" element_type="f32"/>
			<output>
				<port id="0" precision="FP32"/>
			</output>
		</layer>
		<layer id="292" name="5566557039349" type="Const" version="opset1">
			<data offset="9758" size="4" shape="" element_type="f32"/>
			<output>
				<port id="0" precision="FP32"/>
			</output>
		</layer>
		<layer id="293" name="5567557136748" type="Const" version="opset1">
			<data offset="0" size="4" shape="" element_type="f32"/>
			<output>
				<port id="0" precision="FP32"/>
			</output>
		</layer>
		<layer id="294" name="5568557236970" type="Const" version="opset1">
			<data offset="9758" size="4" shape="" element_type="f32"/>
			<output>
				<port id="0" precision="FP32"/>
			</output>
		</layer>
		<layer id="295" name="8105810938617" type="Const" version="opset1">
			<data offset="0" size="4" shape="" element_type="f32"/>
			<output>
				<port id="0" precision="FP32"/>
			</output>
		</layer>
		<layer id="296" name="8106811035260" type="Const" version="opset1">
			<data offset="9762" size="4" shape="" element_type="f32"/>
			<output>
				<port id="0" precision="FP32"/>
			</output>
		</layer>
		<layer id="297" name="8107811139337" type="Const" version="opset1">
			<data offset="0" size="4" shape="" element_type="f32"/>
			<output>
				<port id="0" precision="FP32"/>
			</output>
		</layer>
		<layer id="298" name="8108811238458" type="Const" version="opset1">
			<data offset="9762" size="4" shape="" element_type="f32"/>
			<output>
				<port id="0" precision="FP32"/>
			</output>
		</layer>
		<layer id="299" name="7485748935338" type="Const" version="opset1">
			<data offset="0" size="4" shape="" element_type="f32"/>
			<output>
				<port id="0" precision="FP32"/>
			</output>
		</layer>
		<layer id="300" name="7486749035581" type="Const" version="opset1">
			<data offset="9766" size="4" shape="" element_type="f32"/>
			<output>
				<port id="0" precision="FP32"/>
			</output>
		</layer>
		<layer id="301" name="7487749136064" type="Const" version="opset1">
			<data offset="0" size="4" shape="" element_type="f32"/>
			<output>
				<port id="0" precision="FP32"/>
			</output>
		</layer>
		<layer id="302" name="7488749237753" type="Const" version="opset1">
			<data offset="9766" size="4" shape="" element_type="f32"/>
			<output>
				<port id="0" precision="FP32"/>
			</output>
		</layer>
		<layer id="303" name="5935593939376" type="Const" version="opset1">
			<data offset="0" size="4" shape="" element_type="f32"/>
			<output>
				<port id="0" precision="FP32"/>
			</output>
		</layer>
		<layer id="304" name="5936594035959" type="Const" version="opset1">
			<data offset="9770" size="4" shape="" element_type="f32"/>
			<output>
				<port id="0" precision="FP32"/>
			</output>
		</layer>
		<layer id="305" name="5937594138635" type="Const" version="opset1">
			<data offset="0" size="4" shape="" element_type="f32"/>
			<output>
				<port id="0" precision="FP32"/>
			</output>
		</layer>
		<layer id="306" name="5938594236976" type="Const" version="opset1">
			<data offset="9770" size="4" shape="" element_type="f32"/>
			<output>
				<port id="0" precision="FP32"/>
			</output>
		</layer>
		<layer id="307" name="7075707935593" type="Const" version="opset1">
			<data offset="0" size="4" shape="" element_type="f32"/>
			<output>
				<port id="0" precision="FP32"/>
			</output>
		</layer>
		<layer id="308" name="7076708038926" type="Const" version="opset1">
			<data offset="9774" size="4" shape="" element_type="f32"/>
			<output>
				<port id="0" precision="FP32"/>
			</output>
		</layer>
		<layer id="309" name="7077708136376" type="Const" version="opset1">
			<data offset="0" size="4" shape="" element_type="f32"/>
			<output>
				<port id="0" precision="FP32"/>
			</output>
		</layer>
		<layer id="310" name="7078708237390" type="Const" version="opset1">
			<data offset="9774" size="4" shape="" element_type="f32"/>
			<output>
				<port id="0" precision="FP32"/>
			</output>
		</layer>
		<layer id="311" name="106281063236961" type="Const" version="opset1">
			<data offset="9778" size="4" shape="" element_type="f32"/>
			<output>
				<port id="0" precision="FP32"/>
			</output>
		</layer>
		<layer id="312" name="106291063337750" type="Const" version="opset1">
			<data offset="9782" size="4" shape="" element_type="f32"/>
			<output>
				<port id="0" precision="FP32"/>
			</output>
		</layer>
		<layer id="313" name="106301063439241" type="Const" version="opset1">
			<data offset="9778" size="4" shape="" element_type="f32"/>
			<output>
				<port id="0" precision="FP32"/>
			</output>
		</layer>
		<layer id="314" name="106311063538974" type="Const" version="opset1">
			<data offset="9782" size="4" shape="" element_type="f32"/>
			<output>
				<port id="0" precision="FP32"/>
			</output>
		</layer>
		<layer id="315" name="Constant_1491140735764" type="Const" version="opset1">
			<data offset="7314" size="8" shape="1" element_type="i64"/>
			<output>
				<port id="0" precision="I64">
					<dim>1</dim>
				</port>
			</output>
		</layer>
		<layer id="316" name="688140535008" type="Const" version="opset1">
			<data offset="7322" size="24" shape="3" element_type="i64"/>
			<output>
				<port id="0" precision="I64" names="688">
					<dim>3</dim>
				</port>
			</output>
		</layer>
		<layer id="317" name="107081071237630" type="Const" version="opset1">
			<data offset="0" size="4" shape="" element_type="f32"/>
			<output>
				<port id="0" precision="FP32"/>
			</output>
		</layer>
		<layer id="318" name="107091071336676" type="Const" version="opset1">
			<data offset="9786" size="4" shape="" element_type="f32"/>
			<output>
				<port id="0" precision="FP32"/>
			</output>
		</layer>
		<layer id="319" name="107101071436037" type="Const" version="opset1">
			<data offset="0" size="4" shape="" element_type="f32"/>
			<output>
				<port id="0" precision="FP32"/>
			</output>
		</layer>
		<layer id="320" name="107111071538035" type="Const" version="opset1">
			<data offset="9786" size="4" shape="" element_type="f32"/>
			<output>
				<port id="0" precision="FP32"/>
			</output>
		</layer>
		<layer id="321" name="4085408934915" type="Const" version="opset1">
			<data offset="0" size="4" shape="" element_type="f32"/>
			<output>
				<port id="0" precision="FP32"/>
			</output>
		</layer>
		<layer id="322" name="4086409036142" type="Const" version="opset1">
			<data offset="9790" size="4" shape="" element_type="f32"/>
			<output>
				<port id="0" precision="FP32"/>
			</output>
		</layer>
		<layer id="323" name="4087409138770" type="Const" version="opset1">
			<data offset="0" size="4" shape="" element_type="f32"/>
			<output>
				<port id="0" precision="FP32"/>
			</output>
		</layer>
		<layer id="324" name="4088409236436" type="Const" version="opset1">
			<data offset="9790" size="4" shape="" element_type="f32"/>
			<output>
				<port id="0" precision="FP32"/>
			</output>
		</layer>
		<layer id="325" name="6155615938791" type="Const" version="opset1">
			<data offset="9794" size="128" shape="1,32,1,1" element_type="f32"/>
			<output>
				<port id="0" precision="FP32">
					<dim>1</dim>
					<dim>32</dim>
					<dim>1</dim>
					<dim>1</dim>
				</port>
			</output>
		</layer>
		<layer id="326" name="6156616037903" type="Const" version="opset1">
			<data offset="9922" size="128" shape="1,32,1,1" element_type="f32"/>
			<output>
				<port id="0" precision="FP32">
					<dim>1</dim>
					<dim>32</dim>
					<dim>1</dim>
					<dim>1</dim>
				</port>
			</output>
		</layer>
		<layer id="327" name="6157616136499" type="Const" version="opset1">
			<data offset="9794" size="128" shape="1,32,1,1" element_type="f32"/>
			<output>
				<port id="0" precision="FP32">
					<dim>1</dim>
					<dim>32</dim>
					<dim>1</dim>
					<dim>1</dim>
				</port>
			</output>
		</layer>
		<layer id="328" name="6158616236886" type="Const" version="opset1">
			<data offset="9922" size="128" shape="1,32,1,1" element_type="f32"/>
			<output>
				<port id="0" precision="FP32">
					<dim>1</dim>
					<dim>32</dim>
					<dim>1</dim>
					<dim>1</dim>
				</port>
			</output>
		</layer>
		<layer id="329" name="3078308034942" type="Const" version="opset1">
			<data offset="32" size="128" shape="1,32,1,1" element_type="f32"/>
			<output>
				<port id="0" precision="FP32">
					<dim>1</dim>
					<dim>32</dim>
					<dim>1</dim>
					<dim>1</dim>
				</port>
			</output>
		</layer>
		<layer id="330" name="6135613935344" type="Const" version="opset1">
			<data offset="0" size="4" shape="" element_type="f32"/>
			<output>
				<port id="0" precision="FP32"/>
			</output>
		</layer>
		<layer id="331" name="6136614035155" type="Const" version="opset1">
			<data offset="10050" size="4" shape="" element_type="f32"/>
			<output>
				<port id="0" precision="FP32"/>
			</output>
		</layer>
		<layer id="332" name="6137614136646" type="Const" version="opset1">
			<data offset="0" size="4" shape="" element_type="f32"/>
			<output>
				<port id="0" precision="FP32"/>
			</output>
		</layer>
		<layer id="333" name="6138614236217" type="Const" version="opset1">
			<data offset="10050" size="4" shape="" element_type="f32"/>
			<output>
				<port id="0" precision="FP32"/>
			</output>
		</layer>
		<layer id="334" name="4855485939436" type="Const" version="opset1">
			<data offset="0" size="4" shape="" element_type="f32"/>
			<output>
				<port id="0" precision="FP32"/>
			</output>
		</layer>
		<layer id="335" name="4856486039193" type="Const" version="opset1">
			<data offset="10054" size="4" shape="" element_type="f32"/>
			<output>
				<port id="0" precision="FP32"/>
			</output>
		</layer>
		<layer id="336" name="4857486137255" type="Const" version="opset1">
			<data offset="0" size="4" shape="" element_type="f32"/>
			<output>
				<port id="0" precision="FP32"/>
			</output>
		</layer>
		<layer id="337" name="4858486238080" type="Const" version="opset1">
			<data offset="10054" size="4" shape="" element_type="f32"/>
			<output>
				<port id="0" precision="FP32"/>
			</output>
		</layer>
		<layer id="338" name="6835683938326" type="Const" version="opset1">
			<data offset="10058" size="4" shape="" element_type="f32"/>
			<output>
				<port id="0" precision="FP32"/>
			</output>
		</layer>
		<layer id="339" name="6836684038155" type="Const" version="opset1">
			<data offset="10062" size="4" shape="" element_type="f32"/>
			<output>
				<port id="0" precision="FP32"/>
			</output>
		</layer>
		<layer id="340" name="6837684136670" type="Const" version="opset1">
			<data offset="10058" size="4" shape="" element_type="f32"/>
			<output>
				<port id="0" precision="FP32"/>
			</output>
		</layer>
		<layer id="341" name="6838684237957" type="Const" version="opset1">
			<data offset="10062" size="4" shape="" element_type="f32"/>
			<output>
				<port id="0" precision="FP32"/>
			</output>
		</layer>
		<layer id="342" name="4135413935920" type="Const" version="opset1">
			<data offset="0" size="4" shape="" element_type="f32"/>
			<output>
				<port id="0" precision="FP32"/>
			</output>
		</layer>
		<layer id="343" name="4136414036082" type="Const" version="opset1">
			<data offset="10066" size="4" shape="" element_type="f32"/>
			<output>
				<port id="0" precision="FP32"/>
			</output>
		</layer>
		<layer id="344" name="4137414138413" type="Const" version="opset1">
			<data offset="0" size="4" shape="" element_type="f32"/>
			<output>
				<port id="0" precision="FP32"/>
			</output>
		</layer>
		<layer id="345" name="4138414237096" type="Const" version="opset1">
			<data offset="10066" size="4" shape="" element_type="f32"/>
			<output>
				<port id="0" precision="FP32"/>
			</output>
		</layer>
		<layer id="346" name="4995499935068" type="Const" version="opset1">
			<data offset="0" size="4" shape="" element_type="f32"/>
			<output>
				<port id="0" precision="FP32"/>
			</output>
		</layer>
		<layer id="347" name="4996500038548" type="Const" version="opset1">
			<data offset="10070" size="4" shape="" element_type="f32"/>
			<output>
				<port id="0" precision="FP32"/>
			</output>
		</layer>
		<layer id="348" name="4997500135974" type="Const" version="opset1">
			<data offset="0" size="4" shape="" element_type="f32"/>
			<output>
				<port id="0" precision="FP32"/>
			</output>
		</layer>
		<layer id="349" name="4998500238794" type="Const" version="opset1">
			<data offset="10070" size="4" shape="" element_type="f32"/>
			<output>
				<port id="0" precision="FP32"/>
			</output>
		</layer>
		<layer id="350" name="4375437934717" type="Const" version="opset1">
			<data offset="0" size="4" shape="" element_type="f32"/>
			<output>
				<port id="0" precision="FP32"/>
			</output>
		</layer>
		<layer id="351" name="4376438035206" type="Const" version="opset1">
			<data offset="10074" size="4" shape="" element_type="f32"/>
			<output>
				<port id="0" precision="FP32"/>
			</output>
		</layer>
		<layer id="352" name="4377438135437" type="Const" version="opset1">
			<data offset="0" size="4" shape="" element_type="f32"/>
			<output>
				<port id="0" precision="FP32"/>
			</output>
		</layer>
		<layer id="353" name="4378438238884" type="Const" version="opset1">
			<data offset="10074" size="4" shape="" element_type="f32"/>
			<output>
				<port id="0" precision="FP32"/>
			</output>
		</layer>
		<layer id="354" name="6935693936115" type="Const" version="opset1">
			<data offset="0" size="4" shape="" element_type="f32"/>
			<output>
				<port id="0" precision="FP32"/>
			</output>
		</layer>
		<layer id="355" name="6936694035467" type="Const" version="opset1">
			<data offset="10078" size="4" shape="" element_type="f32"/>
			<output>
				<port id="0" precision="FP32"/>
			</output>
		</layer>
		<layer id="356" name="6937694137807" type="Const" version="opset1">
			<data offset="0" size="4" shape="" element_type="f32"/>
			<output>
				<port id="0" precision="FP32"/>
			</output>
		</layer>
		<layer id="357" name="6938694238032" type="Const" version="opset1">
			<data offset="10078" size="4" shape="" element_type="f32"/>
			<output>
				<port id="0" precision="FP32"/>
			</output>
		</layer>
		<layer id="358" name="7945794937519" type="Const" version="opset1">
			<data offset="0" size="4" shape="" element_type="f32"/>
			<output>
				<port id="0" precision="FP32"/>
			</output>
		</layer>
		<layer id="359" name="7946795036367" type="Const" version="opset1">
			<data offset="10082" size="4" shape="" element_type="f32"/>
			<output>
				<port id="0" precision="FP32"/>
			</output>
		</layer>
		<layer id="360" name="7947795137498" type="Const" version="opset1">
			<data offset="0" size="4" shape="" element_type="f32"/>
			<output>
				<port id="0" precision="FP32"/>
			</output>
		</layer>
		<layer id="361" name="7948795235062" type="Const" version="opset1">
			<data offset="10082" size="4" shape="" element_type="f32"/>
			<output>
				<port id="0" precision="FP32"/>
			</output>
		</layer>
		<layer id="362" name="6795679938200" type="Const" version="opset1">
			<data offset="0" size="4" shape="" element_type="f32"/>
			<output>
				<port id="0" precision="FP32"/>
			</output>
		</layer>
		<layer id="363" name="6796680037219" type="Const" version="opset1">
			<data offset="10086" size="4" shape="" element_type="f32"/>
			<output>
				<port id="0" precision="FP32"/>
			</output>
		</layer>
		<layer id="364" name="6797680139082" type="Const" version="opset1">
			<data offset="0" size="4" shape="" element_type="f32"/>
			<output>
				<port id="0" precision="FP32"/>
			</output>
		</layer>
		<layer id="365" name="6798680239199" type="Const" version="opset1">
			<data offset="10086" size="4" shape="" element_type="f32"/>
			<output>
				<port id="0" precision="FP32"/>
			</output>
		</layer>
		<layer id="366" name="5195519939310" type="Const" version="opset1">
			<data offset="10090" size="128" shape="1,32,1,1" element_type="f32"/>
			<output>
				<port id="0" precision="FP32">
					<dim>1</dim>
					<dim>32</dim>
					<dim>1</dim>
					<dim>1</dim>
				</port>
			</output>
		</layer>
		<layer id="367" name="5196520035536" type="Const" version="opset1">
			<data offset="10218" size="128" shape="1,32,1,1" element_type="f32"/>
			<output>
				<port id="0" precision="FP32">
					<dim>1</dim>
					<dim>32</dim>
					<dim>1</dim>
					<dim>1</dim>
				</port>
			</output>
		</layer>
		<layer id="368" name="5197520138173" type="Const" version="opset1">
			<data offset="10090" size="128" shape="1,32,1,1" element_type="f32"/>
			<output>
				<port id="0" precision="FP32">
					<dim>1</dim>
					<dim>32</dim>
					<dim>1</dim>
					<dim>1</dim>
				</port>
			</output>
		</layer>
		<layer id="369" name="5198520238629" type="Const" version="opset1">
			<data offset="10218" size="128" shape="1,32,1,1" element_type="f32"/>
			<output>
				<port id="0" precision="FP32">
					<dim>1</dim>
					<dim>32</dim>
					<dim>1</dim>
					<dim>1</dim>
				</port>
			</output>
		</layer>
		<layer id="370" name="3038304034978" type="Const" version="opset1">
			<data offset="32" size="128" shape="1,32,1,1" element_type="f32"/>
			<output>
				<port id="0" precision="FP32">
					<dim>1</dim>
					<dim>32</dim>
					<dim>1</dim>
					<dim>1</dim>
				</port>
			</output>
		</layer>
		<layer id="371" name="7015701935116" type="Const" version="opset1">
			<data offset="0" size="4" shape="" element_type="f32"/>
			<output>
				<port id="0" precision="FP32"/>
			</output>
		</layer>
		<layer id="372" name="7016702039022" type="Const" version="opset1">
			<data offset="10346" size="4" shape="" element_type="f32"/>
			<output>
				<port id="0" precision="FP32"/>
			</output>
		</layer>
		<layer id="373" name="7017702135407" type="Const" version="opset1">
			<data offset="0" size="4" shape="" element_type="f32"/>
			<output>
				<port id="0" precision="FP32"/>
			</output>
		</layer>
		<layer id="374" name="7018702237804" type="Const" version="opset1">
			<data offset="10346" size="4" shape="" element_type="f32"/>
			<output>
				<port id="0" precision="FP32"/>
			</output>
		</layer>
		<layer id="375" name="Multiply_12443/fq_weights_1/scale2256337456" type="Const" version="opset1">
			<data offset="10350" size="128" shape="32,1,1,1" element_type="f32"/>
			<output>
				<port id="0" precision="FP32">
					<dim>32</dim>
					<dim>1</dim>
					<dim>1</dim>
					<dim>1</dim>
				</port>
			</output>
		</layer>
		<layer id="376" name="Multiply_13000120718870/restored_convert/quantized2255535167" type="Const" version="opset1">
			<data offset="10478" size="1024" shape="32,32,1,1" element_type="i8"/>
			<output>
				<port id="0" precision="I8">
					<dim>32</dim>
					<dim>32</dim>
					<dim>1</dim>
					<dim>1</dim>
				</port>
			</output>
		</layer>
		<layer id="377" name="Multiply_13000120718870/restored_convert/quantized/to_f32" type="Convert" version="opset1">
			<data destination_type="f32"/>
			<input>
				<port id="0">
					<dim>32</dim>
					<dim>32</dim>
					<dim>1</dim>
					<dim>1</dim>
				</port>
			</input>
			<output>
				<port id="1" precision="FP32">
					<dim>32</dim>
					<dim>32</dim>
					<dim>1</dim>
					<dim>1</dim>
				</port>
			</output>
		</layer>
		<layer id="378" name="Multiply_12443/fq_weights_1/mulpiply_by_scale" type="Multiply" version="opset1">
			<data auto_broadcast="numpy"/>
			<input>
				<port id="0">
					<dim>32</dim>
					<dim>32</dim>
					<dim>1</dim>
					<dim>1</dim>
				</port>
				<port id="1">
					<dim>32</dim>
					<dim>1</dim>
					<dim>1</dim>
					<dim>1</dim>
				</port>
			</input>
			<output>
				<port id="2" precision="FP32">
					<dim>32</dim>
					<dim>32</dim>
					<dim>1</dim>
					<dim>1</dim>
				</port>
			</output>
		</layer>
		<layer id="379" name="Multiply_12443" type="Convolution" version="opset1">
			<data auto_pad="explicit" strides="1,1" dilations="1,1" pads_begin="0,0" pads_end="0,0"/>
			<input>
				<port id="0">
					<dim>1</dim>
					<dim>32</dim>
					<dim>64</dim>
					<dim>32</dim>
				</port>
				<port id="1">
					<dim>32</dim>
					<dim>32</dim>
					<dim>1</dim>
					<dim>1</dim>
				</port>
			</input>
			<output>
				<port id="2" precision="FP32">
					<dim>1</dim>
					<dim>32</dim>
					<dim>64</dim>
					<dim>32</dim>
				</port>
			</output>
		</layer>
		<layer id="380" name="Constant_12448121035356" type="Const" version="opset1">
			<data offset="11502" size="64" shape="1,32,1,1" element_type="f16"/>
			<output>
				<port id="0" precision="FP16">
					<dim>1</dim>
					<dim>32</dim>
					<dim>1</dim>
					<dim>1</dim>
				</port>
			</output>
		</layer>
		<layer id="381" name="Constant_12448121018871/restored_convert" type="Convert" version="opset1">
			<data destination_type="f32"/>
			<rt_info>
				<attribute name="decompression" version="0"/>
			</rt_info>
			<input>
				<port id="0">
					<dim>1</dim>
					<dim>32</dim>
					<dim>1</dim>
					<dim>1</dim>
				</port>
			</input>
			<output>
				<port id="1" precision="FP32">
					<dim>1</dim>
					<dim>32</dim>
					<dim>1</dim>
					<dim>1</dim>
				</port>
			</output>
		</layer>
		<layer id="382" name="569" type="Add" version="opset1">
			<data auto_broadcast="numpy"/>
			<input>
				<port id="0">
					<dim>1</dim>
					<dim>32</dim>
					<dim>64</dim>
					<dim>32</dim>
				</port>
				<port id="1">
					<dim>1</dim>
					<dim>32</dim>
					<dim>1</dim>
					<dim>1</dim>
				</port>
			</input>
			<output>
				<port id="2" precision="FP32" names="569">
					<dim>1</dim>
					<dim>32</dim>
					<dim>64</dim>
					<dim>32</dim>
				</port>
			</output>
		</layer>
		<layer id="383" name="570" type="ReLU" version="opset1">
			<input>
				<port id="0">
					<dim>1</dim>
					<dim>32</dim>
					<dim>64</dim>
					<dim>32</dim>
				</port>
			</input>
			<output>
				<port id="1" precision="FP32" names="570">
					<dim>1</dim>
					<dim>32</dim>
					<dim>64</dim>
					<dim>32</dim>
				</port>
			</output>
		</layer>
		<layer id="384" name="571/fq_input_0" type="FakeQuantize" version="opset1">
			<data levels="256" auto_broadcast="numpy"/>
			<input>
				<port id="0">
					<dim>1</dim>
					<dim>32</dim>
					<dim>64</dim>
					<dim>32</dim>
				</port>
				<port id="1"/>
				<port id="2"/>
				<port id="3"/>
				<port id="4"/>
			</input>
			<output>
				<port id="5" precision="FP32">
					<dim>1</dim>
					<dim>32</dim>
					<dim>64</dim>
					<dim>32</dim>
				</port>
			</output>
		</layer>
		<layer id="385" name="571/fq_weights_1/scale2352338551" type="Const" version="opset1">
			<data offset="11566" size="128" shape="32,1,1,1" element_type="f32"/>
			<output>
				<port id="0" precision="FP32">
					<dim>32</dim>
					<dim>1</dim>
					<dim>1</dim>
					<dim>1</dim>
				</port>
			</output>
		</layer>
		<layer id="386" name="conv2.0.conv2a.conv1.weight121418872/restored_convert/quantized2351539316" type="Const" version="opset1">
			<data offset="11694" size="1024" shape="32,32,1,1" element_type="i8"/>
			<output>
				<port id="0" precision="I8">
					<dim>32</dim>
					<dim>32</dim>
					<dim>1</dim>
					<dim>1</dim>
				</port>
			</output>
		</layer>
		<layer id="387" name="conv2.0.conv2a.conv1.weight121418872/restored_convert/quantized/to_f32" type="Convert" version="opset1">
			<data destination_type="f32"/>
			<input>
				<port id="0">
					<dim>32</dim>
					<dim>32</dim>
					<dim>1</dim>
					<dim>1</dim>
				</port>
			</input>
			<output>
				<port id="1" precision="FP32">
					<dim>32</dim>
					<dim>32</dim>
					<dim>1</dim>
					<dim>1</dim>
				</port>
			</output>
		</layer>
		<layer id="388" name="571/fq_weights_1/mulpiply_by_scale" type="Multiply" version="opset1">
			<data auto_broadcast="numpy"/>
			<input>
				<port id="0">
					<dim>32</dim>
					<dim>32</dim>
					<dim>1</dim>
					<dim>1</dim>
				</port>
				<port id="1">
					<dim>32</dim>
					<dim>1</dim>
					<dim>1</dim>
					<dim>1</dim>
				</port>
			</input>
			<output>
				<port id="2" precision="FP32">
					<dim>32</dim>
					<dim>32</dim>
					<dim>1</dim>
					<dim>1</dim>
				</port>
			</output>
		</layer>
		<layer id="389" name="571" type="Convolution" version="opset1">
			<data auto_pad="explicit" strides="1,1" dilations="1,1" pads_begin="0,0" pads_end="0,0"/>
			<input>
				<port id="0">
					<dim>1</dim>
					<dim>32</dim>
					<dim>64</dim>
					<dim>32</dim>
				</port>
				<port id="1">
					<dim>32</dim>
					<dim>32</dim>
					<dim>1</dim>
					<dim>1</dim>
				</port>
			</input>
			<output>
				<port id="2" precision="FP32" names="571">
					<dim>1</dim>
					<dim>32</dim>
					<dim>64</dim>
					<dim>32</dim>
				</port>
			</output>
		</layer>
		<layer id="390" name="571/add_" type="Add" version="opset1">
			<data auto_broadcast="numpy"/>
			<input>
				<port id="0">
					<dim>1</dim>
					<dim>32</dim>
					<dim>64</dim>
					<dim>32</dim>
				</port>
				<port id="1">
					<dim>1</dim>
					<dim>32</dim>
					<dim>1</dim>
					<dim>1</dim>
				</port>
			</input>
			<output>
				<port id="2" precision="FP32">
					<dim>1</dim>
					<dim>32</dim>
					<dim>64</dim>
					<dim>32</dim>
				</port>
			</output>
		</layer>
		<layer id="391" name="Multiply_12450/fq_input_0" type="FakeQuantize" version="opset1">
			<data levels="256" auto_broadcast="numpy"/>
			<input>
				<port id="0">
					<dim>1</dim>
					<dim>32</dim>
					<dim>64</dim>
					<dim>32</dim>
				</port>
				<port id="1">
					<dim>1</dim>
					<dim>32</dim>
					<dim>1</dim>
					<dim>1</dim>
				</port>
				<port id="2">
					<dim>1</dim>
					<dim>32</dim>
					<dim>1</dim>
					<dim>1</dim>
				</port>
				<port id="3">
					<dim>1</dim>
					<dim>32</dim>
					<dim>1</dim>
					<dim>1</dim>
				</port>
				<port id="4">
					<dim>1</dim>
					<dim>32</dim>
					<dim>1</dim>
					<dim>1</dim>
				</port>
			</input>
			<output>
				<port id="5" precision="FP32">
					<dim>1</dim>
					<dim>32</dim>
					<dim>64</dim>
					<dim>32</dim>
				</port>
			</output>
		</layer>
		<layer id="392" name="Multiply_12450/weights_shape3044737474" type="Const" version="opset1">
			<data offset="12718" size="40" shape="5" element_type="i64"/>
			<output>
				<port id="0" precision="I64">
					<dim>5</dim>
				</port>
			</output>
		</layer>
		<layer id="393" name="Multiply_12450/fq_weights_1/scale2238335938" type="Const" version="opset1">
			<data offset="12758" size="128" shape="32,1,1,1" element_type="f32"/>
			<output>
				<port id="0" precision="FP32">
					<dim>32</dim>
					<dim>1</dim>
					<dim>1</dim>
					<dim>1</dim>
				</port>
			</output>
		</layer>
		<layer id="394" name="Multiply_13006121718873/restored_convert/quantized2237537072" type="Const" version="opset1">
			<data offset="12886" size="288" shape="32,1,3,3" element_type="i8"/>
			<output>
				<port id="0" precision="I8">
					<dim>32</dim>
					<dim>1</dim>
					<dim>3</dim>
					<dim>3</dim>
				</port>
			</output>
		</layer>
		<layer id="395" name="Multiply_13006121718873/restored_convert/quantized/to_f32" type="Convert" version="opset1">
			<data destination_type="f32"/>
			<input>
				<port id="0">
					<dim>32</dim>
					<dim>1</dim>
					<dim>3</dim>
					<dim>3</dim>
				</port>
			</input>
			<output>
				<port id="1" precision="FP32">
					<dim>32</dim>
					<dim>1</dim>
					<dim>3</dim>
					<dim>3</dim>
				</port>
			</output>
		</layer>
		<layer id="396" name="Multiply_12450/fq_weights_1/mulpiply_by_scale" type="Multiply" version="opset1">
			<data auto_broadcast="numpy"/>
			<input>
				<port id="0">
					<dim>32</dim>
					<dim>1</dim>
					<dim>3</dim>
					<dim>3</dim>
				</port>
				<port id="1">
					<dim>32</dim>
					<dim>1</dim>
					<dim>1</dim>
					<dim>1</dim>
				</port>
			</input>
			<output>
				<port id="2" precision="FP32">
					<dim>32</dim>
					<dim>1</dim>
					<dim>3</dim>
					<dim>3</dim>
				</port>
			</output>
		</layer>
		<layer id="397" name="30446" type="Reshape" version="opset1">
			<data special_zero="true"/>
			<input>
				<port id="0">
					<dim>32</dim>
					<dim>1</dim>
					<dim>3</dim>
					<dim>3</dim>
				</port>
				<port id="1">
					<dim>5</dim>
				</port>
			</input>
			<output>
				<port id="2" precision="FP32">
					<dim>32</dim>
					<dim>1</dim>
					<dim>1</dim>
					<dim>3</dim>
					<dim>3</dim>
				</port>
			</output>
		</layer>
		<layer id="398" name="Multiply_12450" type="GroupConvolution" version="opset1">
			<data auto_pad="explicit" strides="1,1" dilations="1,1" pads_begin="1,1" pads_end="1,1"/>
			<input>
				<port id="0">
					<dim>1</dim>
					<dim>32</dim>
					<dim>64</dim>
					<dim>32</dim>
				</port>
				<port id="1">
					<dim>32</dim>
					<dim>1</dim>
					<dim>1</dim>
					<dim>3</dim>
					<dim>3</dim>
				</port>
			</input>
			<output>
				<port id="2" precision="FP32" names="572">
					<dim>1</dim>
					<dim>32</dim>
					<dim>64</dim>
					<dim>32</dim>
				</port>
			</output>
		</layer>
		<layer id="399" name="Constant_12455122038425" type="Const" version="opset1">
			<data offset="13174" size="64" shape="1,32,1,1" element_type="f16"/>
			<output>
				<port id="0" precision="FP16">
					<dim>1</dim>
					<dim>32</dim>
					<dim>1</dim>
					<dim>1</dim>
				</port>
			</output>
		</layer>
		<layer id="400" name="Constant_12455122018874/restored_convert" type="Convert" version="opset1">
			<data destination_type="f32"/>
			<rt_info>
				<attribute name="decompression" version="0"/>
			</rt_info>
			<input>
				<port id="0">
					<dim>1</dim>
					<dim>32</dim>
					<dim>1</dim>
					<dim>1</dim>
				</port>
			</input>
			<output>
				<port id="1" precision="FP32">
					<dim>1</dim>
					<dim>32</dim>
					<dim>1</dim>
					<dim>1</dim>
				</port>
			</output>
		</layer>
		<layer id="401" name="573" type="Add" version="opset1">
			<data auto_broadcast="numpy"/>
			<input>
				<port id="0">
					<dim>1</dim>
					<dim>32</dim>
					<dim>64</dim>
					<dim>32</dim>
				</port>
				<port id="1">
					<dim>1</dim>
					<dim>32</dim>
					<dim>1</dim>
					<dim>1</dim>
				</port>
			</input>
			<output>
				<port id="2" precision="FP32" names="573">
					<dim>1</dim>
					<dim>32</dim>
					<dim>64</dim>
					<dim>32</dim>
				</port>
			</output>
		</layer>
		<layer id="402" name="574" type="ReLU" version="opset1">
			<input>
				<port id="0">
					<dim>1</dim>
					<dim>32</dim>
					<dim>64</dim>
					<dim>32</dim>
				</port>
			</input>
			<output>
				<port id="1" precision="FP32" names="574">
					<dim>1</dim>
					<dim>32</dim>
					<dim>64</dim>
					<dim>32</dim>
				</port>
			</output>
		</layer>
		<layer id="403" name="611/fq_input_0" type="FakeQuantize" version="opset1">
			<data levels="256" auto_broadcast="numpy"/>
			<input>
				<port id="0">
					<dim>1</dim>
					<dim>32</dim>
					<dim>64</dim>
					<dim>32</dim>
				</port>
				<port id="1"/>
				<port id="2"/>
				<port id="3"/>
				<port id="4"/>
			</input>
			<output>
				<port id="5" precision="FP32">
					<dim>1</dim>
					<dim>32</dim>
					<dim>64</dim>
					<dim>32</dim>
				</port>
			</output>
		</layer>
		<layer id="404" name="Range_9641223" type="Const" version="opset1">
			<data offset="8" size="16" shape="2" element_type="i64"/>
			<output>
				<port id="0" precision="I64">
					<dim>2</dim>
				</port>
			</output>
		</layer>
		<layer id="405" name="611" type="ReduceMean" version="opset1">
			<data keep_dims="true"/>
			<input>
				<port id="0">
					<dim>1</dim>
					<dim>32</dim>
					<dim>64</dim>
					<dim>32</dim>
				</port>
				<port id="1">
					<dim>2</dim>
				</port>
			</input>
			<output>
				<port id="2" precision="FP32" names="611">
					<dim>1</dim>
					<dim>32</dim>
					<dim>1</dim>
					<dim>1</dim>
				</port>
			</output>
		</layer>
		<layer id="406" name="conv2.0.gate.fc1.weight122636511" type="Const" version="opset1">
			<data offset="13238" size="128" shape="2,32,1,1" element_type="f16"/>
			<output>
				<port id="0" precision="FP16">
					<dim>2</dim>
					<dim>32</dim>
					<dim>1</dim>
					<dim>1</dim>
				</port>
			</output>
		</layer>
		<layer id="407" name="conv2.0.gate.fc1.weight122618876/restored_convert" type="Convert" version="opset1">
			<data destination_type="f32"/>
			<rt_info>
				<attribute name="decompression" version="0"/>
			</rt_info>
			<input>
				<port id="0">
					<dim>2</dim>
					<dim>32</dim>
					<dim>1</dim>
					<dim>1</dim>
				</port>
			</input>
			<output>
				<port id="1" precision="FP32" names="conv2.0.gate.fc1.weight">
					<dim>2</dim>
					<dim>32</dim>
					<dim>1</dim>
					<dim>1</dim>
				</port>
			</output>
		</layer>
		<layer id="408" name="612/WithoutBiases" type="Convolution" version="opset1">
			<data auto_pad="explicit" strides="1,1" dilations="1,1" pads_begin="0,0" pads_end="0,0"/>
			<input>
				<port id="0">
					<dim>1</dim>
					<dim>32</dim>
					<dim>1</dim>
					<dim>1</dim>
				</port>
				<port id="1">
					<dim>2</dim>
					<dim>32</dim>
					<dim>1</dim>
					<dim>1</dim>
				</port>
			</input>
			<output>
				<port id="2" precision="FP32">
					<dim>1</dim>
					<dim>2</dim>
					<dim>1</dim>
					<dim>1</dim>
				</port>
			</output>
		</layer>
		<layer id="409" name="Reshape_979122937570" type="Const" version="opset1">
			<data offset="13366" size="4" shape="1,2,1,1" element_type="f16"/>
			<output>
				<port id="0" precision="FP16">
					<dim>1</dim>
					<dim>2</dim>
					<dim>1</dim>
					<dim>1</dim>
				</port>
			</output>
		</layer>
		<layer id="410" name="Reshape_979122918877/restored_convert" type="Convert" version="opset1">
			<data destination_type="f32"/>
			<rt_info>
				<attribute name="decompression" version="0"/>
			</rt_info>
			<input>
				<port id="0">
					<dim>1</dim>
					<dim>2</dim>
					<dim>1</dim>
					<dim>1</dim>
				</port>
			</input>
			<output>
				<port id="1" precision="FP32">
					<dim>1</dim>
					<dim>2</dim>
					<dim>1</dim>
					<dim>1</dim>
				</port>
			</output>
		</layer>
		<layer id="411" name="612" type="Add" version="opset1">
			<data auto_broadcast="numpy"/>
			<input>
				<port id="0">
					<dim>1</dim>
					<dim>2</dim>
					<dim>1</dim>
					<dim>1</dim>
				</port>
				<port id="1">
					<dim>1</dim>
					<dim>2</dim>
					<dim>1</dim>
					<dim>1</dim>
				</port>
			</input>
			<output>
				<port id="2" precision="FP32" names="612">
					<dim>1</dim>
					<dim>2</dim>
					<dim>1</dim>
					<dim>1</dim>
				</port>
			</output>
		</layer>
		<layer id="412" name="613" type="ReLU" version="opset1">
			<input>
				<port id="0">
					<dim>1</dim>
					<dim>2</dim>
					<dim>1</dim>
					<dim>1</dim>
				</port>
			</input>
			<output>
				<port id="1" precision="FP32" names="613">
					<dim>1</dim>
					<dim>2</dim>
					<dim>1</dim>
					<dim>1</dim>
				</port>
			</output>
		</layer>
		<layer id="413" name="conv2.0.gate.fc2.weight123338293" type="Const" version="opset1">
			<data offset="13370" size="128" shape="32,2,1,1" element_type="f16"/>
			<output>
				<port id="0" precision="FP16">
					<dim>32</dim>
					<dim>2</dim>
					<dim>1</dim>
					<dim>1</dim>
				</port>
			</output>
		</layer>
		<layer id="414" name="conv2.0.gate.fc2.weight123318878/restored_convert" type="Convert" version="opset1">
			<data destination_type="f32"/>
			<rt_info>
				<attribute name="decompression" version="0"/>
			</rt_info>
			<input>
				<port id="0">
					<dim>32</dim>
					<dim>2</dim>
					<dim>1</dim>
					<dim>1</dim>
				</port>
			</input>
			<output>
				<port id="1" precision="FP32" names="conv2.0.gate.fc2.weight">
					<dim>32</dim>
					<dim>2</dim>
					<dim>1</dim>
					<dim>1</dim>
				</port>
			</output>
		</layer>
		<layer id="415" name="614/WithoutBiases" type="Convolution" version="opset1">
			<data auto_pad="explicit" strides="1,1" dilations="1,1" pads_begin="0,0" pads_end="0,0"/>
			<input>
				<port id="0">
					<dim>1</dim>
					<dim>2</dim>
					<dim>1</dim>
					<dim>1</dim>
				</port>
				<port id="1">
					<dim>32</dim>
					<dim>2</dim>
					<dim>1</dim>
					<dim>1</dim>
				</port>
			</input>
			<output>
				<port id="2" precision="FP32">
					<dim>1</dim>
					<dim>32</dim>
					<dim>1</dim>
					<dim>1</dim>
				</port>
			</output>
		</layer>
		<layer id="416" name="Reshape_995123639427" type="Const" version="opset1">
			<data offset="13498" size="64" shape="1,32,1,1" element_type="f16"/>
			<output>
				<port id="0" precision="FP16">
					<dim>1</dim>
					<dim>32</dim>
					<dim>1</dim>
					<dim>1</dim>
				</port>
			</output>
		</layer>
		<layer id="417" name="Reshape_995123618879/restored_convert" type="Convert" version="opset1">
			<data destination_type="f32"/>
			<rt_info>
				<attribute name="decompression" version="0"/>
			</rt_info>
			<input>
				<port id="0">
					<dim>1</dim>
					<dim>32</dim>
					<dim>1</dim>
					<dim>1</dim>
				</port>
			</input>
			<output>
				<port id="1" precision="FP32">
					<dim>1</dim>
					<dim>32</dim>
					<dim>1</dim>
					<dim>1</dim>
				</port>
			</output>
		</layer>
		<layer id="418" name="614" type="Add" version="opset1">
			<data auto_broadcast="numpy"/>
			<input>
				<port id="0">
					<dim>1</dim>
					<dim>32</dim>
					<dim>1</dim>
					<dim>1</dim>
				</port>
				<port id="1">
					<dim>1</dim>
					<dim>32</dim>
					<dim>1</dim>
					<dim>1</dim>
				</port>
			</input>
			<output>
				<port id="2" precision="FP32" names="614">
					<dim>1</dim>
					<dim>32</dim>
					<dim>1</dim>
					<dim>1</dim>
				</port>
			</output>
		</layer>
		<layer id="419" name="615" type="Sigmoid" version="opset1">
			<input>
				<port id="0">
					<dim>1</dim>
					<dim>32</dim>
					<dim>1</dim>
					<dim>1</dim>
				</port>
			</input>
			<output>
				<port id="1" precision="FP32" names="615">
					<dim>1</dim>
					<dim>32</dim>
					<dim>1</dim>
					<dim>1</dim>
				</port>
			</output>
		</layer>
		<layer id="420" name="616/fq_input_1" type="FakeQuantize" version="opset1">
			<data levels="256" auto_broadcast="numpy"/>
			<input>
				<port id="0">
					<dim>1</dim>
					<dim>32</dim>
					<dim>1</dim>
					<dim>1</dim>
				</port>
				<port id="1"/>
				<port id="2"/>
				<port id="3"/>
				<port id="4"/>
			</input>
			<output>
				<port id="5" precision="FP32">
					<dim>1</dim>
					<dim>32</dim>
					<dim>1</dim>
					<dim>1</dim>
				</port>
			</output>
		</layer>
		<layer id="421" name="616" type="Multiply" version="opset1">
			<data auto_broadcast="numpy"/>
			<input>
				<port id="0">
					<dim>1</dim>
					<dim>32</dim>
					<dim>64</dim>
					<dim>32</dim>
				</port>
				<port id="1">
					<dim>1</dim>
					<dim>32</dim>
					<dim>1</dim>
					<dim>1</dim>
				</port>
			</input>
			<output>
				<port id="2" precision="FP32" names="616">
					<dim>1</dim>
					<dim>32</dim>
					<dim>64</dim>
					<dim>32</dim>
				</port>
			</output>
		</layer>
		<layer id="422" name="623/fq_input_0" type="FakeQuantize" version="opset1">
			<data levels="256" auto_broadcast="numpy"/>
			<input>
				<port id="0">
					<dim>1</dim>
					<dim>32</dim>
					<dim>64</dim>
					<dim>32</dim>
				</port>
				<port id="1"/>
				<port id="2"/>
				<port id="3"/>
				<port id="4"/>
			</input>
			<output>
				<port id="5" precision="FP32">
					<dim>1</dim>
					<dim>32</dim>
					<dim>64</dim>
					<dim>32</dim>
				</port>
			</output>
		</layer>
		<layer id="423" name="6945694934885" type="Const" version="opset1">
			<data offset="0" size="4" shape="" element_type="f32"/>
			<output>
				<port id="0" precision="FP32"/>
			</output>
		</layer>
		<layer id="424" name="6946695037279" type="Const" version="opset1">
			<data offset="13562" size="4" shape="" element_type="f32"/>
			<output>
				<port id="0" precision="FP32"/>
			</output>
		</layer>
		<layer id="425" name="6947695137894" type="Const" version="opset1">
			<data offset="0" size="4" shape="" element_type="f32"/>
			<output>
				<port id="0" precision="FP32"/>
			</output>
		</layer>
		<layer id="426" name="6948695239226" type="Const" version="opset1">
			<data offset="13562" size="4" shape="" element_type="f32"/>
			<output>
				<port id="0" precision="FP32"/>
			</output>
		</layer>
		<layer id="427" name="6575657939394" type="Const" version="opset1">
			<data offset="0" size="4" shape="" element_type="f32"/>
			<output>
				<port id="0" precision="FP32"/>
			</output>
		</layer>
		<layer id="428" name="6576658037834" type="Const" version="opset1">
			<data offset="13566" size="4" shape="" element_type="f32"/>
			<output>
				<port id="0" precision="FP32"/>
			</output>
		</layer>
		<layer id="429" name="6577658139406" type="Const" version="opset1">
			<data offset="0" size="4" shape="" element_type="f32"/>
			<output>
				<port id="0" precision="FP32"/>
			</output>
		</layer>
		<layer id="430" name="6578658236088" type="Const" version="opset1">
			<data offset="13566" size="4" shape="" element_type="f32"/>
			<output>
				<port id="0" precision="FP32"/>
			</output>
		</layer>
		<layer id="431" name="7055705937573" type="Const" version="opset1">
			<data offset="0" size="4" shape="" element_type="f32"/>
			<output>
				<port id="0" precision="FP32"/>
			</output>
		</layer>
		<layer id="432" name="7056706037303" type="Const" version="opset1">
			<data offset="13570" size="4" shape="" element_type="f32"/>
			<output>
				<port id="0" precision="FP32"/>
			</output>
		</layer>
		<layer id="433" name="7057706137126" type="Const" version="opset1">
			<data offset="0" size="4" shape="" element_type="f32"/>
			<output>
				<port id="0" precision="FP32"/>
			</output>
		</layer>
		<layer id="434" name="7058706237996" type="Const" version="opset1">
			<data offset="13570" size="4" shape="" element_type="f32"/>
			<output>
				<port id="0" precision="FP32"/>
			</output>
		</layer>
		<layer id="435" name="7525752934843" type="Const" version="opset1">
			<data offset="13574" size="128" shape="1,32,1,1" element_type="f32"/>
			<output>
				<port id="0" precision="FP32">
					<dim>1</dim>
					<dim>32</dim>
					<dim>1</dim>
					<dim>1</dim>
				</port>
			</output>
		</layer>
		<layer id="436" name="7526753036337" type="Const" version="opset1">
			<data offset="13702" size="128" shape="1,32,1,1" element_type="f32"/>
			<output>
				<port id="0" precision="FP32">
					<dim>1</dim>
					<dim>32</dim>
					<dim>1</dim>
					<dim>1</dim>
				</port>
			</output>
		</layer>
		<layer id="437" name="7527753135782" type="Const" version="opset1">
			<data offset="13574" size="128" shape="1,32,1,1" element_type="f32"/>
			<output>
				<port id="0" precision="FP32">
					<dim>1</dim>
					<dim>32</dim>
					<dim>1</dim>
					<dim>1</dim>
				</port>
			</output>
		</layer>
		<layer id="438" name="7528753238950" type="Const" version="opset1">
			<data offset="13702" size="128" shape="1,32,1,1" element_type="f32"/>
			<output>
				<port id="0" precision="FP32">
					<dim>1</dim>
					<dim>32</dim>
					<dim>1</dim>
					<dim>1</dim>
				</port>
			</output>
		</layer>
		<layer id="439" name="3046304837576" type="Const" version="opset1">
			<data offset="32" size="128" shape="1,32,1,1" element_type="f32"/>
			<output>
				<port id="0" precision="FP32">
					<dim>1</dim>
					<dim>32</dim>
					<dim>1</dim>
					<dim>1</dim>
				</port>
			</output>
		</layer>
		<layer id="440" name="7215721939409" type="Const" version="opset1">
			<data offset="0" size="4" shape="" element_type="f32"/>
			<output>
				<port id="0" precision="FP32"/>
			</output>
		</layer>
		<layer id="441" name="7216722034933" type="Const" version="opset1">
			<data offset="13830" size="4" shape="" element_type="f32"/>
			<output>
				<port id="0" precision="FP32"/>
			</output>
		</layer>
		<layer id="442" name="7217722137024" type="Const" version="opset1">
			<data offset="0" size="4" shape="" element_type="f32"/>
			<output>
				<port id="0" precision="FP32"/>
			</output>
		</layer>
		<layer id="443" name="7218722235095" type="Const" version="opset1">
			<data offset="13830" size="4" shape="" element_type="f32"/>
			<output>
				<port id="0" precision="FP32"/>
			</output>
		</layer>
		<layer id="444" name="5435543935422" type="Const" version="opset1">
			<data offset="13834" size="128" shape="1,32,1,1" element_type="f32"/>
			<output>
				<port id="0" precision="FP32">
					<dim>1</dim>
					<dim>32</dim>
					<dim>1</dim>
					<dim>1</dim>
				</port>
			</output>
		</layer>
		<layer id="445" name="5436544037162" type="Const" version="opset1">
			<data offset="13962" size="128" shape="1,32,1,1" element_type="f32"/>
			<output>
				<port id="0" precision="FP32">
					<dim>1</dim>
					<dim>32</dim>
					<dim>1</dim>
					<dim>1</dim>
				</port>
			</output>
		</layer>
		<layer id="446" name="5437544136265" type="Const" version="opset1">
			<data offset="13834" size="128" shape="1,32,1,1" element_type="f32"/>
			<output>
				<port id="0" precision="FP32">
					<dim>1</dim>
					<dim>32</dim>
					<dim>1</dim>
					<dim>1</dim>
				</port>
			</output>
		</layer>
		<layer id="447" name="5438544238998" type="Const" version="opset1">
			<data offset="13962" size="128" shape="1,32,1,1" element_type="f32"/>
			<output>
				<port id="0" precision="FP32">
					<dim>1</dim>
					<dim>32</dim>
					<dim>1</dim>
					<dim>1</dim>
				</port>
			</output>
		</layer>
		<layer id="448" name="3042304434708" type="Const" version="opset1">
			<data offset="32" size="128" shape="1,32,1,1" element_type="f32"/>
			<output>
				<port id="0" precision="FP32">
					<dim>1</dim>
					<dim>32</dim>
					<dim>1</dim>
					<dim>1</dim>
				</port>
			</output>
		</layer>
		<layer id="449" name="575/fq_weights_1/scale2268338908" type="Const" version="opset1">
			<data offset="14090" size="128" shape="32,1,1,1" element_type="f32"/>
			<output>
				<port id="0" precision="FP32">
					<dim>32</dim>
					<dim>1</dim>
					<dim>1</dim>
					<dim>1</dim>
				</port>
			</output>
		</layer>
		<layer id="450" name="conv2.0.conv2b.0.conv1.weight124118880/restored_convert/quantized2267538752" type="Const" version="opset1">
			<data offset="14218" size="1024" shape="32,32,1,1" element_type="i8"/>
			<output>
				<port id="0" precision="I8">
					<dim>32</dim>
					<dim>32</dim>
					<dim>1</dim>
					<dim>1</dim>
				</port>
			</output>
		</layer>
		<layer id="451" name="conv2.0.conv2b.0.conv1.weight124118880/restored_convert/quantized/to_f32" type="Convert" version="opset1">
			<data destination_type="f32"/>
			<input>
				<port id="0">
					<dim>32</dim>
					<dim>32</dim>
					<dim>1</dim>
					<dim>1</dim>
				</port>
			</input>
			<output>
				<port id="1" precision="FP32">
					<dim>32</dim>
					<dim>32</dim>
					<dim>1</dim>
					<dim>1</dim>
				</port>
			</output>
		</layer>
		<layer id="452" name="575/fq_weights_1/mulpiply_by_scale" type="Multiply" version="opset1">
			<data auto_broadcast="numpy"/>
			<input>
				<port id="0">
					<dim>32</dim>
					<dim>32</dim>
					<dim>1</dim>
					<dim>1</dim>
				</port>
				<port id="1">
					<dim>32</dim>
					<dim>1</dim>
					<dim>1</dim>
					<dim>1</dim>
				</port>
			</input>
			<output>
				<port id="2" precision="FP32">
					<dim>32</dim>
					<dim>32</dim>
					<dim>1</dim>
					<dim>1</dim>
				</port>
			</output>
		</layer>
		<layer id="453" name="575" type="Convolution" version="opset1">
			<data auto_pad="explicit" strides="1,1" dilations="1,1" pads_begin="0,0" pads_end="0,0"/>
			<input>
				<port id="0">
					<dim>1</dim>
					<dim>32</dim>
					<dim>64</dim>
					<dim>32</dim>
				</port>
				<port id="1">
					<dim>32</dim>
					<dim>32</dim>
					<dim>1</dim>
					<dim>1</dim>
				</port>
			</input>
			<output>
				<port id="2" precision="FP32" names="575">
					<dim>1</dim>
					<dim>32</dim>
					<dim>64</dim>
					<dim>32</dim>
				</port>
			</output>
		</layer>
		<layer id="454" name="575/add_" type="Add" version="opset1">
			<data auto_broadcast="numpy"/>
			<input>
				<port id="0">
					<dim>1</dim>
					<dim>32</dim>
					<dim>64</dim>
					<dim>32</dim>
				</port>
				<port id="1">
					<dim>1</dim>
					<dim>32</dim>
					<dim>1</dim>
					<dim>1</dim>
				</port>
			</input>
			<output>
				<port id="2" precision="FP32">
					<dim>1</dim>
					<dim>32</dim>
					<dim>64</dim>
					<dim>32</dim>
				</port>
			</output>
		</layer>
		<layer id="455" name="Multiply_12457/fq_input_0" type="FakeQuantize" version="opset1">
			<data levels="256" auto_broadcast="numpy"/>
			<input>
				<port id="0">
					<dim>1</dim>
					<dim>32</dim>
					<dim>64</dim>
					<dim>32</dim>
				</port>
				<port id="1">
					<dim>1</dim>
					<dim>32</dim>
					<dim>1</dim>
					<dim>1</dim>
				</port>
				<port id="2">
					<dim>1</dim>
					<dim>32</dim>
					<dim>1</dim>
					<dim>1</dim>
				</port>
				<port id="3">
					<dim>1</dim>
					<dim>32</dim>
					<dim>1</dim>
					<dim>1</dim>
				</port>
				<port id="4">
					<dim>1</dim>
					<dim>32</dim>
					<dim>1</dim>
					<dim>1</dim>
				</port>
			</input>
			<output>
				<port id="5" precision="FP32">
					<dim>1</dim>
					<dim>32</dim>
					<dim>64</dim>
					<dim>32</dim>
				</port>
			</output>
		</layer>
		<layer id="456" name="Multiply_12457/weights_shape3046136856" type="Const" version="opset1">
			<data offset="12718" size="40" shape="5" element_type="i64"/>
			<output>
				<port id="0" precision="I64">
					<dim>5</dim>
				</port>
			</output>
		</layer>
		<layer id="457" name="Multiply_12457/fq_weights_1/scale2523335935" type="Const" version="opset1">
			<data offset="15242" size="128" shape="32,1,1,1" element_type="f32"/>
			<output>
				<port id="0" precision="FP32">
					<dim>32</dim>
					<dim>1</dim>
					<dim>1</dim>
					<dim>1</dim>
				</port>
			</output>
		</layer>
		<layer id="458" name="Multiply_13011124418881/restored_convert/quantized2522536562" type="Const" version="opset1">
			<data offset="15370" size="288" shape="32,1,3,3" element_type="i8"/>
			<output>
				<port id="0" precision="I8">
					<dim>32</dim>
					<dim>1</dim>
					<dim>3</dim>
					<dim>3</dim>
				</port>
			</output>
		</layer>
		<layer id="459" name="Multiply_13011124418881/restored_convert/quantized/to_f32" type="Convert" version="opset1">
			<data destination_type="f32"/>
			<input>
				<port id="0">
					<dim>32</dim>
					<dim>1</dim>
					<dim>3</dim>
					<dim>3</dim>
				</port>
			</input>
			<output>
				<port id="1" precision="FP32">
					<dim>32</dim>
					<dim>1</dim>
					<dim>3</dim>
					<dim>3</dim>
				</port>
			</output>
		</layer>
		<layer id="460" name="Multiply_12457/fq_weights_1/mulpiply_by_scale" type="Multiply" version="opset1">
			<data auto_broadcast="numpy"/>
			<input>
				<port id="0">
					<dim>32</dim>
					<dim>1</dim>
					<dim>3</dim>
					<dim>3</dim>
				</port>
				<port id="1">
					<dim>32</dim>
					<dim>1</dim>
					<dim>1</dim>
					<dim>1</dim>
				</port>
			</input>
			<output>
				<port id="2" precision="FP32">
					<dim>32</dim>
					<dim>1</dim>
					<dim>3</dim>
					<dim>3</dim>
				</port>
			</output>
		</layer>
		<layer id="461" name="30460" type="Reshape" version="opset1">
			<data special_zero="true"/>
			<input>
				<port id="0">
					<dim>32</dim>
					<dim>1</dim>
					<dim>3</dim>
					<dim>3</dim>
				</port>
				<port id="1">
					<dim>5</dim>
				</port>
			</input>
			<output>
				<port id="2" precision="FP32">
					<dim>32</dim>
					<dim>1</dim>
					<dim>1</dim>
					<dim>3</dim>
					<dim>3</dim>
				</port>
			</output>
		</layer>
		<layer id="462" name="Multiply_12457" type="GroupConvolution" version="opset1">
			<data auto_pad="explicit" strides="1,1" dilations="1,1" pads_begin="1,1" pads_end="1,1"/>
			<input>
				<port id="0">
					<dim>1</dim>
					<dim>32</dim>
					<dim>64</dim>
					<dim>32</dim>
				</port>
				<port id="1">
					<dim>32</dim>
					<dim>1</dim>
					<dim>1</dim>
					<dim>3</dim>
					<dim>3</dim>
				</port>
			</input>
			<output>
				<port id="2" precision="FP32" names="576">
					<dim>1</dim>
					<dim>32</dim>
					<dim>64</dim>
					<dim>32</dim>
				</port>
			</output>
		</layer>
		<layer id="463" name="Constant_12462124736370" type="Const" version="opset1">
			<data offset="15658" size="64" shape="1,32,1,1" element_type="f16"/>
			<output>
				<port id="0" precision="FP16">
					<dim>1</dim>
					<dim>32</dim>
					<dim>1</dim>
					<dim>1</dim>
				</port>
			</output>
		</layer>
		<layer id="464" name="Constant_12462124718882/restored_convert" type="Convert" version="opset1">
			<data destination_type="f32"/>
			<rt_info>
				<attribute name="decompression" version="0"/>
			</rt_info>
			<input>
				<port id="0">
					<dim>1</dim>
					<dim>32</dim>
					<dim>1</dim>
					<dim>1</dim>
				</port>
			</input>
			<output>
				<port id="1" precision="FP32">
					<dim>1</dim>
					<dim>32</dim>
					<dim>1</dim>
					<dim>1</dim>
				</port>
			</output>
		</layer>
		<layer id="465" name="577" type="Add" version="opset1">
			<data auto_broadcast="numpy"/>
			<input>
				<port id="0">
					<dim>1</dim>
					<dim>32</dim>
					<dim>64</dim>
					<dim>32</dim>
				</port>
				<port id="1">
					<dim>1</dim>
					<dim>32</dim>
					<dim>1</dim>
					<dim>1</dim>
				</port>
			</input>
			<output>
				<port id="2" precision="FP32" names="577">
					<dim>1</dim>
					<dim>32</dim>
					<dim>64</dim>
					<dim>32</dim>
				</port>
			</output>
		</layer>
		<layer id="466" name="578" type="ReLU" version="opset1">
			<input>
				<port id="0">
					<dim>1</dim>
					<dim>32</dim>
					<dim>64</dim>
					<dim>32</dim>
				</port>
			</input>
			<output>
				<port id="1" precision="FP32" names="578">
					<dim>1</dim>
					<dim>32</dim>
					<dim>64</dim>
					<dim>32</dim>
				</port>
			</output>
		</layer>
		<layer id="467" name="579/fq_input_0" type="FakeQuantize" version="opset1">
			<data levels="256" auto_broadcast="numpy"/>
			<input>
				<port id="0">
					<dim>1</dim>
					<dim>32</dim>
					<dim>64</dim>
					<dim>32</dim>
				</port>
				<port id="1"/>
				<port id="2"/>
				<port id="3"/>
				<port id="4"/>
			</input>
			<output>
				<port id="5" precision="FP32">
					<dim>1</dim>
					<dim>32</dim>
					<dim>64</dim>
					<dim>32</dim>
				</port>
			</output>
		</layer>
		<layer id="468" name="579/fq_weights_1/scale2460335848" type="Const" version="opset1">
			<data offset="15722" size="128" shape="32,1,1,1" element_type="f32"/>
			<output>
				<port id="0" precision="FP32">
					<dim>32</dim>
					<dim>1</dim>
					<dim>1</dim>
					<dim>1</dim>
				</port>
			</output>
		</layer>
		<layer id="469" name="conv2.0.conv2b.1.conv1.weight125118883/restored_convert/quantized2459535173" type="Const" version="opset1">
			<data offset="15850" size="1024" shape="32,32,1,1" element_type="i8"/>
			<output>
				<port id="0" precision="I8">
					<dim>32</dim>
					<dim>32</dim>
					<dim>1</dim>
					<dim>1</dim>
				</port>
			</output>
		</layer>
		<layer id="470" name="conv2.0.conv2b.1.conv1.weight125118883/restored_convert/quantized/to_f32" type="Convert" version="opset1">
			<data destination_type="f32"/>
			<input>
				<port id="0">
					<dim>32</dim>
					<dim>32</dim>
					<dim>1</dim>
					<dim>1</dim>
				</port>
			</input>
			<output>
				<port id="1" precision="FP32">
					<dim>32</dim>
					<dim>32</dim>
					<dim>1</dim>
					<dim>1</dim>
				</port>
			</output>
		</layer>
		<layer id="471" name="579/fq_weights_1/mulpiply_by_scale" type="Multiply" version="opset1">
			<data auto_broadcast="numpy"/>
			<input>
				<port id="0">
					<dim>32</dim>
					<dim>32</dim>
					<dim>1</dim>
					<dim>1</dim>
				</port>
				<port id="1">
					<dim>32</dim>
					<dim>1</dim>
					<dim>1</dim>
					<dim>1</dim>
				</port>
			</input>
			<output>
				<port id="2" precision="FP32">
					<dim>32</dim>
					<dim>32</dim>
					<dim>1</dim>
					<dim>1</dim>
				</port>
			</output>
		</layer>
		<layer id="472" name="579" type="Convolution" version="opset1">
			<data auto_pad="explicit" strides="1,1" dilations="1,1" pads_begin="0,0" pads_end="0,0"/>
			<input>
				<port id="0">
					<dim>1</dim>
					<dim>32</dim>
					<dim>64</dim>
					<dim>32</dim>
				</port>
				<port id="1">
					<dim>32</dim>
					<dim>32</dim>
					<dim>1</dim>
					<dim>1</dim>
				</port>
			</input>
			<output>
				<port id="2" precision="FP32" names="579">
					<dim>1</dim>
					<dim>32</dim>
					<dim>64</dim>
					<dim>32</dim>
				</port>
			</output>
		</layer>
		<layer id="473" name="579/add_" type="Add" version="opset1">
			<data auto_broadcast="numpy"/>
			<input>
				<port id="0">
					<dim>1</dim>
					<dim>32</dim>
					<dim>64</dim>
					<dim>32</dim>
				</port>
				<port id="1">
					<dim>1</dim>
					<dim>32</dim>
					<dim>1</dim>
					<dim>1</dim>
				</port>
			</input>
			<output>
				<port id="2" precision="FP32">
					<dim>1</dim>
					<dim>32</dim>
					<dim>64</dim>
					<dim>32</dim>
				</port>
			</output>
		</layer>
		<layer id="474" name="Multiply_12464/fq_input_0" type="FakeQuantize" version="opset1">
			<data levels="256" auto_broadcast="numpy"/>
			<input>
				<port id="0">
					<dim>1</dim>
					<dim>32</dim>
					<dim>64</dim>
					<dim>32</dim>
				</port>
				<port id="1">
					<dim>1</dim>
					<dim>32</dim>
					<dim>1</dim>
					<dim>1</dim>
				</port>
				<port id="2">
					<dim>1</dim>
					<dim>32</dim>
					<dim>1</dim>
					<dim>1</dim>
				</port>
				<port id="3">
					<dim>1</dim>
					<dim>32</dim>
					<dim>1</dim>
					<dim>1</dim>
				</port>
				<port id="4">
					<dim>1</dim>
					<dim>32</dim>
					<dim>1</dim>
					<dim>1</dim>
				</port>
			</input>
			<output>
				<port id="5" precision="FP32">
					<dim>1</dim>
					<dim>32</dim>
					<dim>64</dim>
					<dim>32</dim>
				</port>
			</output>
		</layer>
		<layer id="475" name="Multiply_12464/weights_shape3047536232" type="Const" version="opset1">
			<data offset="12718" size="40" shape="5" element_type="i64"/>
			<output>
				<port id="0" precision="I64">
					<dim>5</dim>
				</port>
			</output>
		</layer>
		<layer id="476" name="Multiply_12464/fq_weights_1/scale2433339388" type="Const" version="opset1">
			<data offset="16874" size="128" shape="32,1,1,1" element_type="f32"/>
			<output>
				<port id="0" precision="FP32">
					<dim>32</dim>
					<dim>1</dim>
					<dim>1</dim>
					<dim>1</dim>
				</port>
			</output>
		</layer>
		<layer id="477" name="Multiply_13016125418884/restored_convert/quantized2432536049" type="Const" version="opset1">
			<data offset="17002" size="288" shape="32,1,3,3" element_type="i8"/>
			<output>
				<port id="0" precision="I8">
					<dim>32</dim>
					<dim>1</dim>
					<dim>3</dim>
					<dim>3</dim>
				</port>
			</output>
		</layer>
		<layer id="478" name="Multiply_13016125418884/restored_convert/quantized/to_f32" type="Convert" version="opset1">
			<data destination_type="f32"/>
			<input>
				<port id="0">
					<dim>32</dim>
					<dim>1</dim>
					<dim>3</dim>
					<dim>3</dim>
				</port>
			</input>
			<output>
				<port id="1" precision="FP32">
					<dim>32</dim>
					<dim>1</dim>
					<dim>3</dim>
					<dim>3</dim>
				</port>
			</output>
		</layer>
		<layer id="479" name="Multiply_12464/fq_weights_1/mulpiply_by_scale" type="Multiply" version="opset1">
			<data auto_broadcast="numpy"/>
			<input>
				<port id="0">
					<dim>32</dim>
					<dim>1</dim>
					<dim>3</dim>
					<dim>3</dim>
				</port>
				<port id="1">
					<dim>32</dim>
					<dim>1</dim>
					<dim>1</dim>
					<dim>1</dim>
				</port>
			</input>
			<output>
				<port id="2" precision="FP32">
					<dim>32</dim>
					<dim>1</dim>
					<dim>3</dim>
					<dim>3</dim>
				</port>
			</output>
		</layer>
		<layer id="480" name="30474" type="Reshape" version="opset1">
			<data special_zero="true"/>
			<input>
				<port id="0">
					<dim>32</dim>
					<dim>1</dim>
					<dim>3</dim>
					<dim>3</dim>
				</port>
				<port id="1">
					<dim>5</dim>
				</port>
			</input>
			<output>
				<port id="2" precision="FP32">
					<dim>32</dim>
					<dim>1</dim>
					<dim>1</dim>
					<dim>3</dim>
					<dim>3</dim>
				</port>
			</output>
		</layer>
		<layer id="481" name="Multiply_12464" type="GroupConvolution" version="opset1">
			<data auto_pad="explicit" strides="1,1" dilations="1,1" pads_begin="1,1" pads_end="1,1"/>
			<input>
				<port id="0">
					<dim>1</dim>
					<dim>32</dim>
					<dim>64</dim>
					<dim>32</dim>
				</port>
				<port id="1">
					<dim>32</dim>
					<dim>1</dim>
					<dim>1</dim>
					<dim>3</dim>
					<dim>3</dim>
				</port>
			</input>
			<output>
				<port id="2" precision="FP32" names="580">
					<dim>1</dim>
					<dim>32</dim>
					<dim>64</dim>
					<dim>32</dim>
				</port>
			</output>
		</layer>
		<layer id="482" name="Constant_12469125737951" type="Const" version="opset1">
			<data offset="17290" size="64" shape="1,32,1,1" element_type="f16"/>
			<output>
				<port id="0" precision="FP16">
					<dim>1</dim>
					<dim>32</dim>
					<dim>1</dim>
					<dim>1</dim>
				</port>
			</output>
		</layer>
		<layer id="483" name="Constant_12469125718885/restored_convert" type="Convert" version="opset1">
			<data destination_type="f32"/>
			<rt_info>
				<attribute name="decompression" version="0"/>
			</rt_info>
			<input>
				<port id="0">
					<dim>1</dim>
					<dim>32</dim>
					<dim>1</dim>
					<dim>1</dim>
				</port>
			</input>
			<output>
				<port id="1" precision="FP32">
					<dim>1</dim>
					<dim>32</dim>
					<dim>1</dim>
					<dim>1</dim>
				</port>
			</output>
		</layer>
		<layer id="484" name="581" type="Add" version="opset1">
			<data auto_broadcast="numpy"/>
			<input>
				<port id="0">
					<dim>1</dim>
					<dim>32</dim>
					<dim>64</dim>
					<dim>32</dim>
				</port>
				<port id="1">
					<dim>1</dim>
					<dim>32</dim>
					<dim>1</dim>
					<dim>1</dim>
				</port>
			</input>
			<output>
				<port id="2" precision="FP32" names="581">
					<dim>1</dim>
					<dim>32</dim>
					<dim>64</dim>
					<dim>32</dim>
				</port>
			</output>
		</layer>
		<layer id="485" name="582" type="ReLU" version="opset1">
			<input>
				<port id="0">
					<dim>1</dim>
					<dim>32</dim>
					<dim>64</dim>
					<dim>32</dim>
				</port>
			</input>
			<output>
				<port id="1" precision="FP32" names="582">
					<dim>1</dim>
					<dim>32</dim>
					<dim>64</dim>
					<dim>32</dim>
				</port>
			</output>
		</layer>
		<layer id="486" name="617/fq_input_0" type="FakeQuantize" version="opset1">
			<data levels="256" auto_broadcast="numpy"/>
			<input>
				<port id="0">
					<dim>1</dim>
					<dim>32</dim>
					<dim>64</dim>
					<dim>32</dim>
				</port>
				<port id="1"/>
				<port id="2"/>
				<port id="3"/>
				<port id="4"/>
			</input>
			<output>
				<port id="5" precision="FP32">
					<dim>1</dim>
					<dim>32</dim>
					<dim>64</dim>
					<dim>32</dim>
				</port>
			</output>
		</layer>
		<layer id="487" name="Range_10071260" type="Const" version="opset1">
			<data offset="8" size="16" shape="2" element_type="i64"/>
			<output>
				<port id="0" precision="I64">
					<dim>2</dim>
				</port>
			</output>
		</layer>
		<layer id="488" name="617" type="ReduceMean" version="opset1">
			<data keep_dims="true"/>
			<input>
				<port id="0">
					<dim>1</dim>
					<dim>32</dim>
					<dim>64</dim>
					<dim>32</dim>
				</port>
				<port id="1">
					<dim>2</dim>
				</port>
			</input>
			<output>
				<port id="2" precision="FP32" names="617">
					<dim>1</dim>
					<dim>32</dim>
					<dim>1</dim>
					<dim>1</dim>
				</port>
			</output>
		</layer>
		<layer id="489" name="618/WithoutBiases" type="Convolution" version="opset1">
			<data auto_pad="explicit" strides="1,1" dilations="1,1" pads_begin="0,0" pads_end="0,0"/>
			<input>
				<port id="0">
					<dim>1</dim>
					<dim>32</dim>
					<dim>1</dim>
					<dim>1</dim>
				</port>
				<port id="1">
					<dim>2</dim>
					<dim>32</dim>
					<dim>1</dim>
					<dim>1</dim>
				</port>
			</input>
			<output>
				<port id="2" precision="FP32">
					<dim>1</dim>
					<dim>2</dim>
					<dim>1</dim>
					<dim>1</dim>
				</port>
			</output>
		</layer>
		<layer id="490" name="Reshape_1022126435245" type="Const" version="opset1">
			<data offset="13366" size="4" shape="1,2,1,1" element_type="f16"/>
			<output>
				<port id="0" precision="FP16">
					<dim>1</dim>
					<dim>2</dim>
					<dim>1</dim>
					<dim>1</dim>
				</port>
			</output>
		</layer>
		<layer id="491" name="Reshape_1022126418887/restored_convert" type="Convert" version="opset1">
			<data destination_type="f32"/>
			<rt_info>
				<attribute name="decompression" version="0"/>
			</rt_info>
			<input>
				<port id="0">
					<dim>1</dim>
					<dim>2</dim>
					<dim>1</dim>
					<dim>1</dim>
				</port>
			</input>
			<output>
				<port id="1" precision="FP32">
					<dim>1</dim>
					<dim>2</dim>
					<dim>1</dim>
					<dim>1</dim>
				</port>
			</output>
		</layer>
		<layer id="492" name="618" type="Add" version="opset1">
			<data auto_broadcast="numpy"/>
			<input>
				<port id="0">
					<dim>1</dim>
					<dim>2</dim>
					<dim>1</dim>
					<dim>1</dim>
				</port>
				<port id="1">
					<dim>1</dim>
					<dim>2</dim>
					<dim>1</dim>
					<dim>1</dim>
				</port>
			</input>
			<output>
				<port id="2" precision="FP32" names="618">
					<dim>1</dim>
					<dim>2</dim>
					<dim>1</dim>
					<dim>1</dim>
				</port>
			</output>
		</layer>
		<layer id="493" name="619" type="ReLU" version="opset1">
			<input>
				<port id="0">
					<dim>1</dim>
					<dim>2</dim>
					<dim>1</dim>
					<dim>1</dim>
				</port>
			</input>
			<output>
				<port id="1" precision="FP32" names="619">
					<dim>1</dim>
					<dim>2</dim>
					<dim>1</dim>
					<dim>1</dim>
				</port>
			</output>
		</layer>
		<layer id="494" name="620/WithoutBiases" type="Convolution" version="opset1">
			<data auto_pad="explicit" strides="1,1" dilations="1,1" pads_begin="0,0" pads_end="0,0"/>
			<input>
				<port id="0">
					<dim>1</dim>
					<dim>2</dim>
					<dim>1</dim>
					<dim>1</dim>
				</port>
				<port id="1">
					<dim>32</dim>
					<dim>2</dim>
					<dim>1</dim>
					<dim>1</dim>
				</port>
			</input>
			<output>
				<port id="2" precision="FP32">
					<dim>1</dim>
					<dim>32</dim>
					<dim>1</dim>
					<dim>1</dim>
				</port>
			</output>
		</layer>
		<layer id="495" name="Reshape_1038126938449" type="Const" version="opset1">
			<data offset="13498" size="64" shape="1,32,1,1" element_type="f16"/>
			<output>
				<port id="0" precision="FP16">
					<dim>1</dim>
					<dim>32</dim>
					<dim>1</dim>
					<dim>1</dim>
				</port>
			</output>
		</layer>
		<layer id="496" name="Reshape_1038126918888/restored_convert" type="Convert" version="opset1">
			<data destination_type="f32"/>
			<rt_info>
				<attribute name="decompression" version="0"/>
			</rt_info>
			<input>
				<port id="0">
					<dim>1</dim>
					<dim>32</dim>
					<dim>1</dim>
					<dim>1</dim>
				</port>
			</input>
			<output>
				<port id="1" precision="FP32">
					<dim>1</dim>
					<dim>32</dim>
					<dim>1</dim>
					<dim>1</dim>
				</port>
			</output>
		</layer>
		<layer id="497" name="620" type="Add" version="opset1">
			<data auto_broadcast="numpy"/>
			<input>
				<port id="0">
					<dim>1</dim>
					<dim>32</dim>
					<dim>1</dim>
					<dim>1</dim>
				</port>
				<port id="1">
					<dim>1</dim>
					<dim>32</dim>
					<dim>1</dim>
					<dim>1</dim>
				</port>
			</input>
			<output>
				<port id="2" precision="FP32" names="620">
					<dim>1</dim>
					<dim>32</dim>
					<dim>1</dim>
					<dim>1</dim>
				</port>
			</output>
		</layer>
		<layer id="498" name="621" type="Sigmoid" version="opset1">
			<input>
				<port id="0">
					<dim>1</dim>
					<dim>32</dim>
					<dim>1</dim>
					<dim>1</dim>
				</port>
			</input>
			<output>
				<port id="1" precision="FP32" names="621">
					<dim>1</dim>
					<dim>32</dim>
					<dim>1</dim>
					<dim>1</dim>
				</port>
			</output>
		</layer>
		<layer id="499" name="622/fq_input_1" type="FakeQuantize" version="opset1">
			<data levels="256" auto_broadcast="numpy"/>
			<input>
				<port id="0">
					<dim>1</dim>
					<dim>32</dim>
					<dim>1</dim>
					<dim>1</dim>
				</port>
				<port id="1"/>
				<port id="2"/>
				<port id="3"/>
				<port id="4"/>
			</input>
			<output>
				<port id="5" precision="FP32">
					<dim>1</dim>
					<dim>32</dim>
					<dim>1</dim>
					<dim>1</dim>
				</port>
			</output>
		</layer>
		<layer id="500" name="622" type="Multiply" version="opset1">
			<data auto_broadcast="numpy"/>
			<input>
				<port id="0">
					<dim>1</dim>
					<dim>32</dim>
					<dim>64</dim>
					<dim>32</dim>
				</port>
				<port id="1">
					<dim>1</dim>
					<dim>32</dim>
					<dim>1</dim>
					<dim>1</dim>
				</port>
			</input>
			<output>
				<port id="2" precision="FP32" names="622">
					<dim>1</dim>
					<dim>32</dim>
					<dim>64</dim>
					<dim>32</dim>
				</port>
			</output>
		</layer>
		<layer id="501" name="623/fq_input_1" type="FakeQuantize" version="opset1">
			<data levels="256" auto_broadcast="numpy"/>
			<input>
				<port id="0">
					<dim>1</dim>
					<dim>32</dim>
					<dim>64</dim>
					<dim>32</dim>
				</port>
				<port id="1"/>
				<port id="2"/>
				<port id="3"/>
				<port id="4"/>
			</input>
			<output>
				<port id="5" precision="FP32">
					<dim>1</dim>
					<dim>32</dim>
					<dim>64</dim>
					<dim>32</dim>
				</port>
			</output>
		</layer>
		<layer id="502" name="623" type="Add" version="opset1">
			<data auto_broadcast="numpy"/>
			<input>
				<port id="0">
					<dim>1</dim>
					<dim>32</dim>
					<dim>64</dim>
					<dim>32</dim>
				</port>
				<port id="1">
					<dim>1</dim>
					<dim>32</dim>
					<dim>64</dim>
					<dim>32</dim>
				</port>
			</input>
			<output>
				<port id="2" precision="FP32" names="623">
					<dim>1</dim>
					<dim>32</dim>
					<dim>64</dim>
					<dim>32</dim>
				</port>
			</output>
		</layer>
		<layer id="503" name="630/fq_input_0" type="FakeQuantize" version="opset1">
			<data levels="256" auto_broadcast="numpy"/>
			<input>
				<port id="0">
					<dim>1</dim>
					<dim>32</dim>
					<dim>64</dim>
					<dim>32</dim>
				</port>
				<port id="1"/>
				<port id="2"/>
				<port id="3"/>
				<port id="4"/>
			</input>
			<output>
				<port id="5" precision="FP32">
					<dim>1</dim>
					<dim>32</dim>
					<dim>64</dim>
					<dim>32</dim>
				</port>
			</output>
		</layer>
		<layer id="504" name="4385438937297" type="Const" version="opset1">
			<data offset="0" size="4" shape="" element_type="f32"/>
			<output>
				<port id="0" precision="FP32"/>
			</output>
		</layer>
		<layer id="505" name="4386439034969" type="Const" version="opset1">
			<data offset="17354" size="4" shape="" element_type="f32"/>
			<output>
				<port id="0" precision="FP32"/>
			</output>
		</layer>
		<layer id="506" name="4387439137258" type="Const" version="opset1">
			<data offset="0" size="4" shape="" element_type="f32"/>
			<output>
				<port id="0" precision="FP32"/>
			</output>
		</layer>
		<layer id="507" name="4388439235977" type="Const" version="opset1">
			<data offset="17354" size="4" shape="" element_type="f32"/>
			<output>
				<port id="0" precision="FP32"/>
			</output>
		</layer>
		<layer id="508" name="5535553937534" type="Const" version="opset1">
			<data offset="0" size="4" shape="" element_type="f32"/>
			<output>
				<port id="0" precision="FP32"/>
			</output>
		</layer>
		<layer id="509" name="5536554036331" type="Const" version="opset1">
			<data offset="17358" size="4" shape="" element_type="f32"/>
			<output>
				<port id="0" precision="FP32"/>
			</output>
		</layer>
		<layer id="510" name="5537554137207" type="Const" version="opset1">
			<data offset="0" size="4" shape="" element_type="f32"/>
			<output>
				<port id="0" precision="FP32"/>
			</output>
		</layer>
		<layer id="511" name="5538554238380" type="Const" version="opset1">
			<data offset="17358" size="4" shape="" element_type="f32"/>
			<output>
				<port id="0" precision="FP32"/>
			</output>
		</layer>
		<layer id="512" name="4345434937333" type="Const" version="opset1">
			<data offset="0" size="4" shape="" element_type="f32"/>
			<output>
				<port id="0" precision="FP32"/>
			</output>
		</layer>
		<layer id="513" name="4346435038494" type="Const" version="opset1">
			<data offset="17362" size="4" shape="" element_type="f32"/>
			<output>
				<port id="0" precision="FP32"/>
			</output>
		</layer>
		<layer id="514" name="4347435135122" type="Const" version="opset1">
			<data offset="0" size="4" shape="" element_type="f32"/>
			<output>
				<port id="0" precision="FP32"/>
			</output>
		</layer>
		<layer id="515" name="4348435238008" type="Const" version="opset1">
			<data offset="17362" size="4" shape="" element_type="f32"/>
			<output>
				<port id="0" precision="FP32"/>
			</output>
		</layer>
		<layer id="516" name="6955695937603" type="Const" version="opset1">
			<data offset="17366" size="128" shape="1,32,1,1" element_type="f32"/>
			<output>
				<port id="0" precision="FP32">
					<dim>1</dim>
					<dim>32</dim>
					<dim>1</dim>
					<dim>1</dim>
				</port>
			</output>
		</layer>
		<layer id="517" name="6956696038266" type="Const" version="opset1">
			<data offset="17494" size="128" shape="1,32,1,1" element_type="f32"/>
			<output>
				<port id="0" precision="FP32">
					<dim>1</dim>
					<dim>32</dim>
					<dim>1</dim>
					<dim>1</dim>
				</port>
			</output>
		</layer>
		<layer id="518" name="6957696138464" type="Const" version="opset1">
			<data offset="17366" size="128" shape="1,32,1,1" element_type="f32"/>
			<output>
				<port id="0" precision="FP32">
					<dim>1</dim>
					<dim>32</dim>
					<dim>1</dim>
					<dim>1</dim>
				</port>
			</output>
		</layer>
		<layer id="519" name="6958696237615" type="Const" version="opset1">
			<data offset="17494" size="128" shape="1,32,1,1" element_type="f32"/>
			<output>
				<port id="0" precision="FP32">
					<dim>1</dim>
					<dim>32</dim>
					<dim>1</dim>
					<dim>1</dim>
				</port>
			</output>
		</layer>
		<layer id="520" name="3058306035059" type="Const" version="opset1">
			<data offset="32" size="128" shape="1,32,1,1" element_type="f32"/>
			<output>
				<port id="0" precision="FP32">
					<dim>1</dim>
					<dim>32</dim>
					<dim>1</dim>
					<dim>1</dim>
				</port>
			</output>
		</layer>
		<layer id="521" name="5175517939004" type="Const" version="opset1">
			<data offset="0" size="4" shape="" element_type="f32"/>
			<output>
				<port id="0" precision="FP32"/>
			</output>
		</layer>
		<layer id="522" name="5176518038488" type="Const" version="opset1">
			<data offset="17622" size="4" shape="" element_type="f32"/>
			<output>
				<port id="0" precision="FP32"/>
			</output>
		</layer>
		<layer id="523" name="5177518137579" type="Const" version="opset1">
			<data offset="0" size="4" shape="" element_type="f32"/>
			<output>
				<port id="0" precision="FP32"/>
			</output>
		</layer>
		<layer id="524" name="5178518236712" type="Const" version="opset1">
			<data offset="17622" size="4" shape="" element_type="f32"/>
			<output>
				<port id="0" precision="FP32"/>
			</output>
		</layer>
		<layer id="525" name="8295829935284" type="Const" version="opset1">
			<data offset="17626" size="128" shape="1,32,1,1" element_type="f32"/>
			<output>
				<port id="0" precision="FP32">
					<dim>1</dim>
					<dim>32</dim>
					<dim>1</dim>
					<dim>1</dim>
				</port>
			</output>
		</layer>
		<layer id="526" name="8296830035038" type="Const" version="opset1">
			<data offset="17754" size="128" shape="1,32,1,1" element_type="f32"/>
			<output>
				<port id="0" precision="FP32">
					<dim>1</dim>
					<dim>32</dim>
					<dim>1</dim>
					<dim>1</dim>
				</port>
			</output>
		</layer>
		<layer id="527" name="8297830137561" type="Const" version="opset1">
			<data offset="17626" size="128" shape="1,32,1,1" element_type="f32"/>
			<output>
				<port id="0" precision="FP32">
					<dim>1</dim>
					<dim>32</dim>
					<dim>1</dim>
					<dim>1</dim>
				</port>
			</output>
		</layer>
		<layer id="528" name="8298830238437" type="Const" version="opset1">
			<data offset="17754" size="128" shape="1,32,1,1" element_type="f32"/>
			<output>
				<port id="0" precision="FP32">
					<dim>1</dim>
					<dim>32</dim>
					<dim>1</dim>
					<dim>1</dim>
				</port>
			</output>
		</layer>
		<layer id="529" name="3054305635326" type="Const" version="opset1">
			<data offset="32" size="128" shape="1,32,1,1" element_type="f32"/>
			<output>
				<port id="0" precision="FP32">
					<dim>1</dim>
					<dim>32</dim>
					<dim>1</dim>
					<dim>1</dim>
				</port>
			</output>
		</layer>
		<layer id="530" name="6345634935353" type="Const" version="opset1">
			<data offset="0" size="4" shape="" element_type="f32"/>
			<output>
				<port id="0" precision="FP32"/>
			</output>
		</layer>
		<layer id="531" name="6346635038377" type="Const" version="opset1">
			<data offset="17882" size="4" shape="" element_type="f32"/>
			<output>
				<port id="0" precision="FP32"/>
			</output>
		</layer>
		<layer id="532" name="6347635135017" type="Const" version="opset1">
			<data offset="0" size="4" shape="" element_type="f32"/>
			<output>
				<port id="0" precision="FP32"/>
			</output>
		</layer>
		<layer id="533" name="6348635238143" type="Const" version="opset1">
			<data offset="17882" size="4" shape="" element_type="f32"/>
			<output>
				<port id="0" precision="FP32"/>
			</output>
		</layer>
		<layer id="534" name="4285428936007" type="Const" version="opset1">
			<data offset="17886" size="128" shape="1,32,1,1" element_type="f32"/>
			<output>
				<port id="0" precision="FP32">
					<dim>1</dim>
					<dim>32</dim>
					<dim>1</dim>
					<dim>1</dim>
				</port>
			</output>
		</layer>
		<layer id="535" name="4286429034891" type="Const" version="opset1">
			<data offset="18014" size="128" shape="1,32,1,1" element_type="f32"/>
			<output>
				<port id="0" precision="FP32">
					<dim>1</dim>
					<dim>32</dim>
					<dim>1</dim>
					<dim>1</dim>
				</port>
			</output>
		</layer>
		<layer id="536" name="4287429136043" type="Const" version="opset1">
			<data offset="17886" size="128" shape="1,32,1,1" element_type="f32"/>
			<output>
				<port id="0" precision="FP32">
					<dim>1</dim>
					<dim>32</dim>
					<dim>1</dim>
					<dim>1</dim>
				</port>
			</output>
		</layer>
		<layer id="537" name="4288429236493" type="Const" version="opset1">
			<data offset="18014" size="128" shape="1,32,1,1" element_type="f32"/>
			<output>
				<port id="0" precision="FP32">
					<dim>1</dim>
					<dim>32</dim>
					<dim>1</dim>
					<dim>1</dim>
				</port>
			</output>
		</layer>
…
		<edge from-layer="2305" from-port="0" to-layer="2387" to-port="2"/>
		<edge from-layer="2306" from-port="0" to-layer="2387" to-port="3"/>
		<edge from-layer="2307" from-port="0" to-layer="2387" to-port="4"/>
		<edge from-layer="2389" from-port="0" to-layer="2390" to-port="0"/>
		<edge from-layer="2390" from-port="1" to-layer="2391" to-port="0"/>
		<edge from-layer="2388" from-port="0" to-layer="2391" to-port="1"/>
		<edge from-layer="2387" from-port="5" to-layer="2392" to-port="0"/>
		<edge from-layer="2391" from-port="2" to-layer="2392" to-port="1"/>
		<edge from-layer="2392" from-port="2" to-layer="2393" to-port="0"/>
		<edge from-layer="2303" from-port="0" to-layer="2393" to-port="1"/>
		<edge from-layer="2393" from-port="2" to-layer="2394" to-port="0"/>
		<edge from-layer="2299" from-port="0" to-layer="2394" to-port="1"/>
		<edge from-layer="2300" from-port="0" to-layer="2394" to-port="2"/>
		<edge from-layer="2301" from-port="0" to-layer="2394" to-port="3"/>
		<edge from-layer="2302" from-port="0" to-layer="2394" to-port="4"/>
		<edge from-layer="2397" from-port="0" to-layer="2398" to-port="0"/>
		<edge from-layer="2398" from-port="1" to-layer="2399" to-port="0"/>
		<edge from-layer="2396" from-port="0" to-layer="2399" to-port="1"/>
		<edge from-layer="2399" from-port="2" to-layer="2400" to-port="0"/>
		<edge from-layer="2395" from-port="0" to-layer="2400" to-port="1"/>
		<edge from-layer="2394" from-port="5" to-layer="2401" to-port="0"/>
		<edge from-layer="2400" from-port="2" to-layer="2401" to-port="1"/>
		<edge from-layer="2402" from-port="0" to-layer="2403" to-port="0"/>
		<edge from-layer="2401" from-port="2" to-layer="2404" to-port="0"/>
		<edge from-layer="2403" from-port="1" to-layer="2404" to-port="1"/>
		<edge from-layer="2404" from-port="2" to-layer="2405" to-port="0"/>
		<edge from-layer="2405" from-port="1" to-layer="2406" to-port="0"/>
		<edge from-layer="2295" from-port="0" to-layer="2406" to-port="1"/>
		<edge from-layer="2296" from-port="0" to-layer="2406" to-port="2"/>
		<edge from-layer="2297" from-port="0" to-layer="2406" to-port="3"/>
		<edge from-layer="2298" from-port="0" to-layer="2406" to-port="4"/>
		<edge from-layer="2406" from-port="5" to-layer="2408" to-port="0"/>
		<edge from-layer="2407" from-port="0" to-layer="2408" to-port="1"/>
		<edge from-layer="2408" from-port="2" to-layer="2409" to-port="0"/>
		<edge from-layer="2081" from-port="1" to-layer="2409" to-port="1"/>
		<edge from-layer="2410" from-port="0" to-layer="2411" to-port="0"/>
		<edge from-layer="2409" from-port="2" to-layer="2412" to-port="0"/>
		<edge from-layer="2411" from-port="1" to-layer="2412" to-port="1"/>
		<edge from-layer="2412" from-port="2" to-layer="2413" to-port="0"/>
		<edge from-layer="2413" from-port="1" to-layer="2414" to-port="0"/>
		<edge from-layer="2088" from-port="1" to-layer="2414" to-port="1"/>
		<edge from-layer="2415" from-port="0" to-layer="2416" to-port="0"/>
		<edge from-layer="2414" from-port="2" to-layer="2417" to-port="0"/>
		<edge from-layer="2416" from-port="1" to-layer="2417" to-port="1"/>
		<edge from-layer="2417" from-port="2" to-layer="2418" to-port="0"/>
		<edge from-layer="2418" from-port="1" to-layer="2419" to-port="0"/>
		<edge from-layer="2291" from-port="0" to-layer="2419" to-port="1"/>
		<edge from-layer="2292" from-port="0" to-layer="2419" to-port="2"/>
		<edge from-layer="2293" from-port="0" to-layer="2419" to-port="3"/>
		<edge from-layer="2294" from-port="0" to-layer="2419" to-port="4"/>
		<edge from-layer="2406" from-port="5" to-layer="2420" to-port="0"/>
		<edge from-layer="2419" from-port="5" to-layer="2420" to-port="1"/>
		<edge from-layer="2420" from-port="2" to-layer="2421" to-port="0"/>
		<edge from-layer="2287" from-port="0" to-layer="2421" to-port="1"/>
		<edge from-layer="2288" from-port="0" to-layer="2421" to-port="2"/>
		<edge from-layer="2289" from-port="0" to-layer="2421" to-port="3"/>
		<edge from-layer="2290" from-port="0" to-layer="2421" to-port="4"/>
		<edge from-layer="2286" from-port="5" to-layer="2422" to-port="0"/>
		<edge from-layer="2421" from-port="5" to-layer="2422" to-port="1"/>
		<edge from-layer="2422" from-port="2" to-layer="2423" to-port="0"/>
		<edge from-layer="142" from-port="0" to-layer="2423" to-port="1"/>
		<edge from-layer="143" from-port="0" to-layer="2423" to-port="2"/>
		<edge from-layer="144" from-port="0" to-layer="2423" to-port="3"/>
		<edge from-layer="145" from-port="0" to-layer="2423" to-port="4"/>
		<edge from-layer="2425" from-port="0" to-layer="2426" to-port="0"/>
		<edge from-layer="2426" from-port="1" to-layer="2427" to-port="0"/>
		<edge from-layer="2424" from-port="0" to-layer="2427" to-port="1"/>
		<edge from-layer="2423" from-port="5" to-layer="2428" to-port="0"/>
		<edge from-layer="2427" from-port="2" to-layer="2428" to-port="1"/>
		<edge from-layer="2429" from-port="0" to-layer="2430" to-port="0"/>
		<edge from-layer="2428" from-port="2" to-layer="2431" to-port="0"/>
		<edge from-layer="2430" from-port="1" to-layer="2431" to-port="1"/>
		<edge from-layer="2431" from-port="2" to-layer="2432" to-port="0"/>
		<edge from-layer="138" from-port="0" to-layer="2432" to-port="1"/>
		<edge from-layer="139" from-port="0" to-layer="2432" to-port="2"/>
		<edge from-layer="140" from-port="0" to-layer="2432" to-port="3"/>
		<edge from-layer="141" from-port="0" to-layer="2432" to-port="4"/>
		<edge from-layer="2438" from-port="0" to-layer="2439" to-port="0"/>
		<edge from-layer="2439" from-port="1" to-layer="2440" to-port="0"/>
		<edge from-layer="2437" from-port="0" to-layer="2440" to-port="1"/>
		<edge from-layer="2048" from-port="5" to-layer="2441" to-port="0"/>
		<edge from-layer="2440" from-port="2" to-layer="2441" to-port="1"/>
		<edge from-layer="2442" from-port="0" to-layer="2443" to-port="0"/>
		<edge from-layer="2441" from-port="2" to-layer="2444" to-port="0"/>
		<edge from-layer="2443" from-port="1" to-layer="2444" to-port="1"/>
		<edge from-layer="2444" from-port="2" to-layer="2445" to-port="0"/>
		<edge from-layer="2433" from-port="0" to-layer="2445" to-port="1"/>
		<edge from-layer="2434" from-port="0" to-layer="2445" to-port="2"/>
		<edge from-layer="2435" from-port="0" to-layer="2445" to-port="3"/>
		<edge from-layer="2436" from-port="0" to-layer="2445" to-port="4"/>
		<edge from-layer="2432" from-port="5" to-layer="2446" to-port="0"/>
		<edge from-layer="2445" from-port="5" to-layer="2446" to-port="1"/>
		<edge from-layer="2446" from-port="2" to-layer="2447" to-port="0"/>
		<edge from-layer="2447" from-port="1" to-layer="2448" to-port="0"/>
		<edge from-layer="134" from-port="0" to-layer="2448" to-port="1"/>
		<edge from-layer="135" from-port="0" to-layer="2448" to-port="2"/>
		<edge from-layer="136" from-port="0" to-layer="2448" to-port="3"/>
		<edge from-layer="137" from-port="0" to-layer="2448" to-port="4"/>
		<edge from-layer="2450" from-port="0" to-layer="2451" to-port="0"/>
		<edge from-layer="2451" from-port="1" to-layer="2452" to-port="0"/>
		<edge from-layer="2449" from-port="0" to-layer="2452" to-port="1"/>
		<edge from-layer="2448" from-port="5" to-layer="2453" to-port="0"/>
		<edge from-layer="2452" from-port="2" to-layer="2453" to-port="1"/>
		<edge from-layer="2454" from-port="0" to-layer="2455" to-port="0"/>
		<edge from-layer="2453" from-port="2" to-layer="2456" to-port="0"/>
		<edge from-layer="2455" from-port="1" to-layer="2456" to-port="1"/>
		<edge from-layer="2456" from-port="2" to-layer="2457" to-port="0"/>
		<edge from-layer="2457" from-port="1" to-layer="2458" to-port="0"/>
		<edge from-layer="130" from-port="0" to-layer="2458" to-port="1"/>
		<edge from-layer="131" from-port="0" to-layer="2458" to-port="2"/>
		<edge from-layer="132" from-port="0" to-layer="2458" to-port="3"/>
		<edge from-layer="133" from-port="0" to-layer="2458" to-port="4"/>
		<edge from-layer="2460" from-port="0" to-layer="2461" to-port="0"/>
		<edge from-layer="2461" from-port="1" to-layer="2462" to-port="0"/>
		<edge from-layer="2459" from-port="0" to-layer="2462" to-port="1"/>
		<edge from-layer="2458" from-port="5" to-layer="2463" to-port="0"/>
		<edge from-layer="2462" from-port="2" to-layer="2463" to-port="1"/>
		<edge from-layer="2463" from-port="2" to-layer="2464" to-port="0"/>
		<edge from-layer="129" from-port="0" to-layer="2464" to-port="1"/>
		<edge from-layer="2464" from-port="2" to-layer="2465" to-port="0"/>
		<edge from-layer="125" from-port="0" to-layer="2465" to-port="1"/>
		<edge from-layer="126" from-port="0" to-layer="2465" to-port="2"/>
		<edge from-layer="127" from-port="0" to-layer="2465" to-port="3"/>
		<edge from-layer="128" from-port="0" to-layer="2465" to-port="4"/>
		<edge from-layer="2468" from-port="0" to-layer="2469" to-port="0"/>
		<edge from-layer="2469" from-port="1" to-layer="2470" to-port="0"/>
		<edge from-layer="2467" from-port="0" to-layer="2470" to-port="1"/>
		<edge from-layer="2470" from-port="2" to-layer="2471" to-port="0"/>
		<edge from-layer="2466" from-port="0" to-layer="2471" to-port="1"/>
		<edge from-layer="2465" from-port="5" to-layer="2472" to-port="0"/>
		<edge from-layer="2471" from-port="2" to-layer="2472" to-port="1"/>
		<edge from-layer="2473" from-port="0" to-layer="2474" to-port="0"/>
		<edge from-layer="2472" from-port="2" to-layer="2475" to-port="0"/>
		<edge from-layer="2474" from-port="1" to-layer="2475" to-port="1"/>
		<edge from-layer="2475" from-port="2" to-layer="2476" to-port="0"/>
		<edge from-layer="2476" from-port="1" to-layer="2477" to-port="0"/>
		<edge from-layer="121" from-port="0" to-layer="2477" to-port="1"/>
		<edge from-layer="122" from-port="0" to-layer="2477" to-port="2"/>
		<edge from-layer="123" from-port="0" to-layer="2477" to-port="3"/>
		<edge from-layer="124" from-port="0" to-layer="2477" to-port="4"/>
		<edge from-layer="2477" from-port="5" to-layer="2479" to-port="0"/>
		<edge from-layer="2478" from-port="0" to-layer="2479" to-port="1"/>
		<edge from-layer="2479" from-port="2" to-layer="2480" to-port="0"/>
		<edge from-layer="117" from-port="0" to-layer="2480" to-port="1"/>
		<edge from-layer="118" from-port="0" to-layer="2480" to-port="2"/>
		<edge from-layer="119" from-port="0" to-layer="2480" to-port="3"/>
		<edge from-layer="120" from-port="0" to-layer="2480" to-port="4"/>
		<edge from-layer="2480" from-port="5" to-layer="2481" to-port="0"/>
		<edge from-layer="116" from-port="0" to-layer="2481" to-port="1"/>
		<edge from-layer="2481" from-port="2" to-layer="2482" to-port="0"/>
		<edge from-layer="115" from-port="0" to-layer="2482" to-port="1"/>
		<edge from-layer="2482" from-port="2" to-layer="2483" to-port="0"/>
		<edge from-layer="111" from-port="0" to-layer="2483" to-port="1"/>
		<edge from-layer="112" from-port="0" to-layer="2483" to-port="2"/>
		<edge from-layer="113" from-port="0" to-layer="2483" to-port="3"/>
		<edge from-layer="114" from-port="0" to-layer="2483" to-port="4"/>
		<edge from-layer="2479" from-port="2" to-layer="2484" to-port="0"/>
		<edge from-layer="2483" from-port="5" to-layer="2485" to-port="0"/>
		<edge from-layer="2484" from-port="1" to-layer="2485" to-port="1"/>
		<edge from-layer="2486" from-port="0" to-layer="2487" to-port="0"/>
		<edge from-layer="2485" from-port="2" to-layer="2488" to-port="0"/>
		<edge from-layer="2487" from-port="1" to-layer="2488" to-port="1"/>
		<edge from-layer="2489" from-port="0" to-layer="2490" to-port="0"/>
		<edge from-layer="2488" from-port="2" to-layer="2491" to-port="0"/>
		<edge from-layer="2490" from-port="1" to-layer="2491" to-port="1"/>
		<edge from-layer="2491" from-port="2" to-layer="2492" to-port="0"/>
		<edge from-layer="2492" from-port="1" to-layer="2493" to-port="0"/>
		<edge from-layer="107" from-port="0" to-layer="2493" to-port="1"/>
		<edge from-layer="108" from-port="0" to-layer="2493" to-port="2"/>
		<edge from-layer="109" from-port="0" to-layer="2493" to-port="3"/>
		<edge from-layer="110" from-port="0" to-layer="2493" to-port="4"/>
		<edge from-layer="2477" from-port="5" to-layer="2494" to-port="0"/>
		<edge from-layer="2493" from-port="5" to-layer="2494" to-port="1"/>
		<edge from-layer="2494" from-port="2" to-layer="2495" to-port="0"/>
		<edge from-layer="103" from-port="0" to-layer="2495" to-port="1"/>
		<edge from-layer="104" from-port="0" to-layer="2495" to-port="2"/>
		<edge from-layer="105" from-port="0" to-layer="2495" to-port="3"/>
		<edge from-layer="106" from-port="0" to-layer="2495" to-port="4"/>
		<edge from-layer="2533" from-port="0" to-layer="2534" to-port="0"/>
		<edge from-layer="2534" from-port="1" to-layer="2535" to-port="0"/>
		<edge from-layer="2532" from-port="0" to-layer="2535" to-port="1"/>
		<edge from-layer="2458" from-port="5" to-layer="2536" to-port="0"/>
		<edge from-layer="2535" from-port="2" to-layer="2536" to-port="1"/>
		<edge from-layer="2536" from-port="2" to-layer="2537" to-port="0"/>
		<edge from-layer="2531" from-port="0" to-layer="2537" to-port="1"/>
		<edge from-layer="2537" from-port="2" to-layer="2538" to-port="0"/>
		<edge from-layer="2527" from-port="0" to-layer="2538" to-port="1"/>
		<edge from-layer="2528" from-port="0" to-layer="2538" to-port="2"/>
		<edge from-layer="2529" from-port="0" to-layer="2538" to-port="3"/>
		<edge from-layer="2530" from-port="0" to-layer="2538" to-port="4"/>
		<edge from-layer="2541" from-port="0" to-layer="2542" to-port="0"/>
		<edge from-layer="2542" from-port="1" to-layer="2543" to-port="0"/>
		<edge from-layer="2540" from-port="0" to-layer="2543" to-port="1"/>
		<edge from-layer="2543" from-port="2" to-layer="2544" to-port="0"/>
		<edge from-layer="2539" from-port="0" to-layer="2544" to-port="1"/>
		<edge from-layer="2538" from-port="5" to-layer="2545" to-port="0"/>
		<edge from-layer="2544" from-port="2" to-layer="2545" to-port="1"/>
		<edge from-layer="2546" from-port="0" to-layer="2547" to-port="0"/>
		<edge from-layer="2545" from-port="2" to-layer="2548" to-port="0"/>
		<edge from-layer="2547" from-port="1" to-layer="2548" to-port="1"/>
		<edge from-layer="2548" from-port="2" to-layer="2549" to-port="0"/>
		<edge from-layer="2549" from-port="1" to-layer="2550" to-port="0"/>
		<edge from-layer="2523" from-port="0" to-layer="2550" to-port="1"/>
		<edge from-layer="2524" from-port="0" to-layer="2550" to-port="2"/>
		<edge from-layer="2525" from-port="0" to-layer="2550" to-port="3"/>
		<edge from-layer="2526" from-port="0" to-layer="2550" to-port="4"/>
		<edge from-layer="2552" from-port="0" to-layer="2553" to-port="0"/>
		<edge from-layer="2553" from-port="1" to-layer="2554" to-port="0"/>
		<edge from-layer="2551" from-port="0" to-layer="2554" to-port="1"/>
		<edge from-layer="2550" from-port="5" to-layer="2555" to-port="0"/>
		<edge from-layer="2554" from-port="2" to-layer="2555" to-port="1"/>
		<edge from-layer="2555" from-port="2" to-layer="2556" to-port="0"/>
		<edge from-layer="2522" from-port="0" to-layer="2556" to-port="1"/>
		<edge from-layer="2556" from-port="2" to-layer="2557" to-port="0"/>
		<edge from-layer="2518" from-port="0" to-layer="2557" to-port="1"/>
		<edge from-layer="2519" from-port="0" to-layer="2557" to-port="2"/>
		<edge from-layer="2520" from-port="0" to-layer="2557" to-port="3"/>
		<edge from-layer="2521" from-port="0" to-layer="2557" to-port="4"/>
		<edge from-layer="2560" from-port="0" to-layer="2561" to-port="0"/>
		<edge from-layer="2561" from-port="1" to-layer="2562" to-port="0"/>
		<edge from-layer="2559" from-port="0" to-layer="2562" to-port="1"/>
		<edge from-layer="2562" from-port="2" to-layer="2563" to-port="0"/>
		<edge from-layer="2558" from-port="0" to-layer="2563" to-port="1"/>
		<edge from-layer="2557" from-port="5" to-layer="2564" to-port="0"/>
		<edge from-layer="2563" from-port="2" to-layer="2564" to-port="1"/>
		<edge from-layer="2565" from-port="0" to-layer="2566" to-port="0"/>
		<edge from-layer="2564" from-port="2" to-layer="2567" to-port="0"/>
		<edge from-layer="2566" from-port="1" to-layer="2567" to-port="1"/>
		<edge from-layer="2567" from-port="2" to-layer="2568" to-port="0"/>
		<edge from-layer="2568" from-port="1" to-layer="2569" to-port="0"/>
		<edge from-layer="2514" from-port="0" to-layer="2569" to-port="1"/>
		<edge from-layer="2515" from-port="0" to-layer="2569" to-port="2"/>
		<edge from-layer="2516" from-port="0" to-layer="2569" to-port="3"/>
		<edge from-layer="2517" from-port="0" to-layer="2569" to-port="4"/>
		<edge from-layer="2569" from-port="5" to-layer="2571" to-port="0"/>
		<edge from-layer="2570" from-port="0" to-layer="2571" to-port="1"/>
		<edge from-layer="2571" from-port="2" to-layer="2572" to-port="0"/>
		<edge from-layer="2510" from-port="0" to-layer="2572" to-port="1"/>
		<edge from-layer="2511" from-port="0" to-layer="2572" to-port="2"/>
		<edge from-layer="2512" from-port="0" to-layer="2572" to-port="3"/>
		<edge from-layer="2513" from-port="0" to-layer="2572" to-port="4"/>
		<edge from-layer="2572" from-port="5" to-layer="2573" to-port="0"/>
		<edge from-layer="2509" from-port="0" to-layer="2573" to-port="1"/>
		<edge from-layer="2573" from-port="2" to-layer="2574" to-port="0"/>
		<edge from-layer="2508" from-port="0" to-layer="2574" to-port="1"/>
		<edge from-layer="2574" from-port="2" to-layer="2575" to-port="0"/>
		<edge from-layer="2504" from-port="0" to-layer="2575" to-port="1"/>
		<edge from-layer="2505" from-port="0" to-layer="2575" to-port="2"/>
		<edge from-layer="2506" from-port="0" to-layer="2575" to-port="3"/>
		<edge from-layer="2507" from-port="0" to-layer="2575" to-port="4"/>
		<edge from-layer="2571" from-port="2" to-layer="2576" to-port="0"/>
		<edge from-layer="2575" from-port="5" to-layer="2577" to-port="0"/>
		<edge from-layer="2576" from-port="1" to-layer="2577" to-port="1"/>
		<edge from-layer="2578" from-port="0" to-layer="2579" to-port="0"/>
		<edge from-layer="2577" from-port="2" to-layer="2580" to-port="0"/>
		<edge from-layer="2579" from-port="1" to-layer="2580" to-port="1"/>
		<edge from-layer="2581" from-port="0" to-layer="2582" to-port="0"/>
		<edge from-layer="2580" from-port="2" to-layer="2583" to-port="0"/>
		<edge from-layer="2582" from-port="1" to-layer="2583" to-port="1"/>
		<edge from-layer="2583" from-port="2" to-layer="2584" to-port="0"/>
		<edge from-layer="2584" from-port="1" to-layer="2585" to-port="0"/>
		<edge from-layer="2500" from-port="0" to-layer="2585" to-port="1"/>
		<edge from-layer="2501" from-port="0" to-layer="2585" to-port="2"/>
		<edge from-layer="2502" from-port="0" to-layer="2585" to-port="3"/>
		<edge from-layer="2503" from-port="0" to-layer="2585" to-port="4"/>
		<edge from-layer="2569" from-port="5" to-layer="2586" to-port="0"/>
		<edge from-layer="2585" from-port="5" to-layer="2586" to-port="1"/>
		<edge from-layer="2586" from-port="2" to-layer="2587" to-port="0"/>
		<edge from-layer="2496" from-port="0" to-layer="2587" to-port="1"/>
		<edge from-layer="2497" from-port="0" to-layer="2587" to-port="2"/>
		<edge from-layer="2498" from-port="0" to-layer="2587" to-port="3"/>
		<edge from-layer="2499" from-port="0" to-layer="2587" to-port="4"/>
		<edge from-layer="2495" from-port="5" to-layer="2588" to-port="0"/>
		<edge from-layer="2587" from-port="5" to-layer="2588" to-port="1"/>
		<edge from-layer="2588" from-port="2" to-layer="2589" to-port="0"/>
		<edge from-layer="99" from-port="0" to-layer="2589" to-port="1"/>
		<edge from-layer="100" from-port="0" to-layer="2589" to-port="2"/>
		<edge from-layer="101" from-port="0" to-layer="2589" to-port="3"/>
		<edge from-layer="102" from-port="0" to-layer="2589" to-port="4"/>
		<edge from-layer="2636" from-port="0" to-layer="2637" to-port="0"/>
		<edge from-layer="2637" from-port="1" to-layer="2638" to-port="0"/>
		<edge from-layer="2635" from-port="0" to-layer="2638" to-port="1"/>
		<edge from-layer="2458" from-port="5" to-layer="2639" to-port="0"/>
		<edge from-layer="2638" from-port="2" to-layer="2639" to-port="1"/>
		<edge from-layer="2639" from-port="2" to-layer="2640" to-port="0"/>
		<edge from-layer="2634" from-port="0" to-layer="2640" to-port="1"/>
		<edge from-layer="2640" from-port="2" to-layer="2641" to-port="0"/>
		<edge from-layer="2630" from-port="0" to-layer="2641" to-port="1"/>
		<edge from-layer="2631" from-port="0" to-layer="2641" to-port="2"/>
		<edge from-layer="2632" from-port="0" to-layer="2641" to-port="3"/>
		<edge from-layer="2633" from-port="0" to-layer="2641" to-port="4"/>
		<edge from-layer="2644" from-port="0" to-layer="2645" to-port="0"/>
		<edge from-layer="2645" from-port="1" to-layer="2646" to-port="0"/>
		<edge from-layer="2643" from-port="0" to-layer="2646" to-port="1"/>
		<edge from-layer="2646" from-port="2" to-layer="2647" to-port="0"/>
		<edge from-layer="2642" from-port="0" to-layer="2647" to-port="1"/>
		<edge from-layer="2641" from-port="5" to-layer="2648" to-port="0"/>
		<edge from-layer="2647" from-port="2" to-layer="2648" to-port="1"/>
		<edge from-layer="2649" from-port="0" to-layer="2650" to-port="0"/>
		<edge from-layer="2648" from-port="2" to-layer="2651" to-port="0"/>
		<edge from-layer="2650" from-port="1" to-layer="2651" to-port="1"/>
		<edge from-layer="2651" from-port="2" to-layer="2652" to-port="0"/>
		<edge from-layer="2652" from-port="1" to-layer="2653" to-port="0"/>
		<edge from-layer="2626" from-port="0" to-layer="2653" to-port="1"/>
		<edge from-layer="2627" from-port="0" to-layer="2653" to-port="2"/>
		<edge from-layer="2628" from-port="0" to-layer="2653" to-port="3"/>
		<edge from-layer="2629" from-port="0" to-layer="2653" to-port="4"/>
		<edge from-layer="2655" from-port="0" to-layer="2656" to-port="0"/>
		<edge from-layer="2656" from-port="1" to-layer="2657" to-port="0"/>
		<edge from-layer="2654" from-port="0" to-layer="2657" to-port="1"/>
		<edge from-layer="2653" from-port="5" to-layer="2658" to-port="0"/>
		<edge from-layer="2657" from-port="2" to-layer="2658" to-port="1"/>
		<edge from-layer="2658" from-port="2" to-layer="2659" to-port="0"/>
		<edge from-layer="2625" from-port="0" to-layer="2659" to-port="1"/>
		<edge from-layer="2659" from-port="2" to-layer="2660" to-port="0"/>
		<edge from-layer="2621" from-port="0" to-layer="2660" to-port="1"/>
		<edge from-layer="2622" from-port="0" to-layer="2660" to-port="2"/>
		<edge from-layer="2623" from-port="0" to-layer="2660" to-port="3"/>
		<edge from-layer="2624" from-port="0" to-layer="2660" to-port="4"/>
		<edge from-layer="2663" from-port="0" to-layer="2664" to-port="0"/>
		<edge from-layer="2664" from-port="1" to-layer="2665" to-port="0"/>
		<edge from-layer="2662" from-port="0" to-layer="2665" to-port="1"/>
		<edge from-layer="2665" from-port="2" to-layer="2666" to-port="0"/>
		<edge from-layer="2661" from-port="0" to-layer="2666" to-port="1"/>
		<edge from-layer="2660" from-port="5" to-layer="2667" to-port="0"/>
		<edge from-layer="2666" from-port="2" to-layer="2667" to-port="1"/>
		<edge from-layer="2668" from-port="0" to-layer="2669" to-port="0"/>
		<edge from-layer="2667" from-port="2" to-layer="2670" to-port="0"/>
		<edge from-layer="2669" from-port="1" to-layer="2670" to-port="1"/>
		<edge from-layer="2670" from-port="2" to-layer="2671" to-port="0"/>
		<edge from-layer="2671" from-port="1" to-layer="2672" to-port="0"/>
		<edge from-layer="2617" from-port="0" to-layer="2672" to-port="1"/>
		<edge from-layer="2618" from-port="0" to-layer="2672" to-port="2"/>
		<edge from-layer="2619" from-port="0" to-layer="2672" to-port="3"/>
		<edge from-layer="2620" from-port="0" to-layer="2672" to-port="4"/>
		<edge from-layer="2674" from-port="0" to-layer="2675" to-port="0"/>
		<edge from-layer="2675" from-port="1" to-layer="2676" to-port="0"/>
		<edge from-layer="2673" from-port="0" to-layer="2676" to-port="1"/>
		<edge from-layer="2672" from-port="5" to-layer="2677" to-port="0"/>
		<edge from-layer="2676" from-port="2" to-layer="2677" to-port="1"/>
		<edge from-layer="2677" from-port="2" to-layer="2678" to-port="0"/>
		<edge from-layer="2616" from-port="0" to-layer="2678" to-port="1"/>
		<edge from-layer="2678" from-port="2" to-layer="2679" to-port="0"/>
		<edge from-layer="2612" from-port="0" to-layer="2679" to-port="1"/>
		<edge from-layer="2613" from-port="0" to-layer="2679" to-port="2"/>
		<edge from-layer="2614" from-port="0" to-layer="2679" to-port="3"/>
		<edge from-layer="2615" from-port="0" to-layer="2679" to-port="4"/>
		<edge from-layer="2682" from-port="0" to-layer="2683" to-port="0"/>
		<edge from-layer="2683" from-port="1" to-layer="2684" to-port="0"/>
		<edge from-layer="2681" from-port="0" to-layer="2684" to-port="1"/>
		<edge from-layer="2684" from-port="2" to-layer="2685" to-port="0"/>
		<edge from-layer="2680" from-port="0" to-layer="2685" to-port="1"/>
		<edge from-layer="2679" from-port="5" to-layer="2686" to-port="0"/>
		<edge from-layer="2685" from-port="2" to-layer="2686" to-port="1"/>
		<edge from-layer="2687" from-port="0" to-layer="2688" to-port="0"/>
		<edge from-layer="2686" from-port="2" to-layer="2689" to-port="0"/>
		<edge from-layer="2688" from-port="1" to-layer="2689" to-port="1"/>
		<edge from-layer="2689" from-port="2" to-layer="2690" to-port="0"/>
		<edge from-layer="2690" from-port="1" to-layer="2691" to-port="0"/>
		<edge from-layer="2608" from-port="0" to-layer="2691" to-port="1"/>
		<edge from-layer="2609" from-port="0" to-layer="2691" to-port="2"/>
		<edge from-layer="2610" from-port="0" to-layer="2691" to-port="3"/>
		<edge from-layer="2611" from-port="0" to-layer="2691" to-port="4"/>
		<edge from-layer="2691" from-port="5" to-layer="2693" to-port="0"/>
		<edge from-layer="2692" from-port="0" to-layer="2693" to-port="1"/>
		<edge from-layer="2693" from-port="2" to-layer="2694" to-port="0"/>
		<edge from-layer="2604" from-port="0" to-layer="2694" to-port="1"/>
		<edge from-layer="2605" from-port="0" to-layer="2694" to-port="2"/>
		<edge from-layer="2606" from-port="0" to-layer="2694" to-port="3"/>
		<edge from-layer="2607" from-port="0" to-layer="2694" to-port="4"/>
		<edge from-layer="2694" from-port="5" to-layer="2695" to-port="0"/>
		<edge from-layer="2603" from-port="0" to-layer="2695" to-port="1"/>
		<edge from-layer="2695" from-port="2" to-layer="2696" to-port="0"/>
		<edge from-layer="2602" from-port="0" to-layer="2696" to-port="1"/>
		<edge from-layer="2696" from-port="2" to-layer="2697" to-port="0"/>
		<edge from-layer="2598" from-port="0" to-layer="2697" to-port="1"/>
		<edge from-layer="2599" from-port="0" to-layer="2697" to-port="2"/>
		<edge from-layer="2600" from-port="0" to-layer="2697" to-port="3"/>
		<edge from-layer="2601" from-port="0" to-layer="2697" to-port="4"/>
		<edge from-layer="2693" from-port="2" to-layer="2698" to-port="0"/>
		<edge from-layer="2697" from-port="5" to-layer="2699" to-port="0"/>
		<edge from-layer="2698" from-port="1" to-layer="2699" to-port="1"/>
		<edge from-layer="2700" from-port="0" to-layer="2701" to-port="0"/>
		<edge from-layer="2699" from-port="2" to-layer="2702" to-port="0"/>
		<edge from-layer="2701" from-port="1" to-layer="2702" to-port="1"/>
		<edge from-layer="2703" from-port="0" to-layer="2704" to-port="0"/>
		<edge from-layer="2702" from-port="2" to-layer="2705" to-port="0"/>
		<edge from-layer="2704" from-port="1" to-layer="2705" to-port="1"/>
		<edge from-layer="2705" from-port="2" to-layer="2706" to-port="0"/>
		<edge from-layer="2706" from-port="1" to-layer="2707" to-port="0"/>
		<edge from-layer="2594" from-port="0" to-layer="2707" to-port="1"/>
		<edge from-layer="2595" from-port="0" to-layer="2707" to-port="2"/>
		<edge from-layer="2596" from-port="0" to-layer="2707" to-port="3"/>
		<edge from-layer="2597" from-port="0" to-layer="2707" to-port="4"/>
		<edge from-layer="2691" from-port="5" to-layer="2708" to-port="0"/>
		<edge from-layer="2707" from-port="5" to-layer="2708" to-port="1"/>
		<edge from-layer="2708" from-port="2" to-layer="2709" to-port="0"/>
		<edge from-layer="2590" from-port="0" to-layer="2709" to-port="1"/>
		<edge from-layer="2591" from-port="0" to-layer="2709" to-port="2"/>
		<edge from-layer="2592" from-port="0" to-layer="2709" to-port="3"/>
		<edge from-layer="2593" from-port="0" to-layer="2709" to-port="4"/>
		<edge from-layer="2589" from-port="5" to-layer="2710" to-port="0"/>
		<edge from-layer="2709" from-port="5" to-layer="2710" to-port="1"/>
		<edge from-layer="2710" from-port="2" to-layer="2711" to-port="0"/>
		<edge from-layer="95" from-port="0" to-layer="2711" to-port="1"/>
		<edge from-layer="96" from-port="0" to-layer="2711" to-port="2"/>
		<edge from-layer="97" from-port="0" to-layer="2711" to-port="3"/>
		<edge from-layer="98" from-port="0" to-layer="2711" to-port="4"/>
		<edge from-layer="2767" from-port="0" to-layer="2768" to-port="0"/>
		<edge from-layer="2768" from-port="1" to-layer="2769" to-port="0"/>
		<edge from-layer="2766" from-port="0" to-layer="2769" to-port="1"/>
		<edge from-layer="2458" from-port="5" to-layer="2770" to-port="0"/>
		<edge from-layer="2769" from-port="2" to-layer="2770" to-port="1"/>
		<edge from-layer="2770" from-port="2" to-layer="2771" to-port="0"/>
		<edge from-layer="2765" from-port="0" to-layer="2771" to-port="1"/>
		<edge from-layer="2771" from-port="2" to-layer="2772" to-port="0"/>
		<edge from-layer="2761" from-port="0" to-layer="2772" to-port="1"/>
		<edge from-layer="2762" from-port="0" to-layer="2772" to-port="2"/>
		<edge from-layer="2763" from-port="0" to-layer="2772" to-port="3"/>
		<edge from-layer="2764" from-port="0" to-layer="2772" to-port="4"/>
		<edge from-layer="2775" from-port="0" to-layer="2776" to-port="0"/>
		<edge from-layer="2776" from-port="1" to-layer="2777" to-port="0"/>
		<edge from-layer="2774" from-port="0" to-layer="2777" to-port="1"/>
		<edge from-layer="2777" from-port="2" to-layer="2778" to-port="0"/>
		<edge from-layer="2773" from-port="0" to-layer="2778" to-port="1"/>
		<edge from-layer="2772" from-port="5" to-layer="2779" to-port="0"/>
		<edge from-layer="2778" from-port="2" to-layer="2779" to-port="1"/>
		<edge from-layer="2780" from-port="0" to-layer="2781" to-port="0"/>
		<edge from-layer="2779" from-port="2" to-layer="2782" to-port="0"/>
		<edge from-layer="2781" from-port="1" to-layer="2782" to-port="1"/>
		<edge from-layer="2782" from-port="2" to-layer="2783" to-port="0"/>
		<edge from-layer="2783" from-port="1" to-layer="2784" to-port="0"/>
		<edge from-layer="2757" from-port="0" to-layer="2784" to-port="1"/>
		<edge from-layer="2758" from-port="0" to-layer="2784" to-port="2"/>
		<edge from-layer="2759" from-port="0" to-layer="2784" to-port="3"/>
		<edge from-layer="2760" from-port="0" to-layer="2784" to-port="4"/>
		<edge from-layer="2786" from-port="0" to-layer="2787" to-port="0"/>
		<edge from-layer="2787" from-port="1" to-layer="2788" to-port="0"/>
		<edge from-layer="2785" from-port="0" to-layer="2788" to-port="1"/>
		<edge from-layer="2784" from-port="5" to-layer="2789" to-port="0"/>
		<edge from-layer="2788" from-port="2" to-layer="2789" to-port="1"/>
		<edge from-layer="2789" from-port="2" to-layer="2790" to-port="0"/>
		<edge from-layer="2756" from-port="0" to-layer="2790" to-port="1"/>
		<edge from-layer="2790" from-port="2" to-layer="2791" to-port="0"/>
		<edge from-layer="2752" from-port="0" to-layer="2791" to-port="1"/>
		<edge from-layer="2753" from-port="0" to-layer="2791" to-port="2"/>
		<edge from-layer="2754" from-port="0" to-layer="2791" to-port="3"/>
		<edge from-layer="2755" from-port="0" to-layer="2791" to-port="4"/>
		<edge from-layer="2794" from-port="0" to-layer="2795" to-port="0"/>
		<edge from-layer="2795" from-port="1" to-layer="2796" to-port="0"/>
		<edge from-layer="2793" from-port="0" to-layer="2796" to-port="1"/>
		<edge from-layer="2796" from-port="2" to-layer="2797" to-port="0"/>
		<edge from-layer="2792" from-port="0" to-layer="2797" to-port="1"/>
		<edge from-layer="2791" from-port="5" to-layer="2798" to-port="0"/>
		<edge from-layer="2797" from-port="2" to-layer="2798" to-port="1"/>
		<edge from-layer="2799" from-port="0" to-layer="2800" to-port="0"/>
		<edge from-layer="2798" from-port="2" to-layer="2801" to-port="0"/>
		<edge from-layer="2800" from-port="1" to-layer="2801" to-port="1"/>
		<edge from-layer="2801" from-port="2" to-layer="2802" to-port="0"/>
		<edge from-layer="2802" from-port="1" to-layer="2803" to-port="0"/>
		<edge from-layer="2748" from-port="0" to-layer="2803" to-port="1"/>
		<edge from-layer="2749" from-port="0" to-layer="2803" to-port="2"/>
		<edge from-layer="2750" from-port="0" to-layer="2803" to-port="3"/>
		<edge from-layer="2751" from-port="0" to-layer="2803" to-port="4"/>
		<edge from-layer="2805" from-port="0" to-layer="2806" to-port="0"/>
		<edge from-layer="2806" from-port="1" to-layer="2807" to-port="0"/>
		<edge from-layer="2804" from-port="0" to-layer="2807" to-port="1"/>
		<edge from-layer="2803" from-port="5" to-layer="2808" to-port="0"/>
		<edge from-layer="2807" from-port="2" to-layer="2808" to-port="1"/>
		<edge from-layer="2808" from-port="2" to-layer="2809" to-port="0"/>
		<edge from-layer="2747" from-port="0" to-layer="2809" to-port="1"/>
		<edge from-layer="2809" from-port="2" to-layer="2810" to-port="0"/>
		<edge from-layer="2743" from-port="0" to-layer="2810" to-port="1"/>
		<edge from-layer="2744" from-port="0" to-layer="2810" to-port="2"/>
		<edge from-layer="2745" from-port="0" to-layer="2810" to-port="3"/>
		<edge from-layer="2746" from-port="0" to-layer="2810" to-port="4"/>
		<edge from-layer="2813" from-port="0" to-layer="2814" to-port="0"/>
		<edge from-layer="2814" from-port="1" to-layer="2815" to-port="0"/>
		<edge from-layer="2812" from-port="0" to-layer="2815" to-port="1"/>
		<edge from-layer="2815" from-port="2" to-layer="2816" to-port="0"/>
		<edge from-layer="2811" from-port="0" to-layer="2816" to-port="1"/>
		<edge from-layer="2810" from-port="5" to-layer="2817" to-port="0"/>
		<edge from-layer="2816" from-port="2" to-layer="2817" to-port="1"/>
		<edge from-layer="2818" from-port="0" to-layer="2819" to-port="0"/>
		<edge from-layer="2817" from-port="2" to-layer="2820" to-port="0"/>
		<edge from-layer="2819" from-port="1" to-layer="2820" to-port="1"/>
		<edge from-layer="2820" from-port="2" to-layer="2821" to-port="0"/>
		<edge from-layer="2821" from-port="1" to-layer="2822" to-port="0"/>
		<edge from-layer="2739" from-port="0" to-layer="2822" to-port="1"/>
		<edge from-layer="2740" from-port="0" to-layer="2822" to-port="2"/>
		<edge from-layer="2741" from-port="0" to-layer="2822" to-port="3"/>
		<edge from-layer="2742" from-port="0" to-layer="2822" to-port="4"/>
		<edge from-layer="2824" from-port="0" to-layer="2825" to-port="0"/>
		<edge from-layer="2825" from-port="1" to-layer="2826" to-port="0"/>
		<edge from-layer="2823" from-port="0" to-layer="2826" to-port="1"/>
		<edge from-layer="2822" from-port="5" to-layer="2827" to-port="0"/>
		<edge from-layer="2826" from-port="2" to-layer="2827" to-port="1"/>
		<edge from-layer="2827" from-port="2" to-layer="2828" to-port="0"/>
		<edge from-layer="2738" from-port="0" to-layer="2828" to-port="1"/>
		<edge from-layer="2828" from-port="2" to-layer="2829" to-port="0"/>
		<edge from-layer="2734" from-port="0" to-layer="2829" to-port="1"/>
		<edge from-layer="2735" from-port="0" to-layer="2829" to-port="2"/>
		<edge from-layer="2736" from-port="0" to-layer="2829" to-port="3"/>
		<edge from-layer="2737" from-port="0" to-layer="2829" to-port="4"/>
		<edge from-layer="2832" from-port="0" to-layer="2833" to-port="0"/>
		<edge from-layer="2833" from-port="1" to-layer="2834" to-port="0"/>
		<edge from-layer="2831" from-port="0" to-layer="2834" to-port="1"/>
		<edge from-layer="2834" from-port="2" to-layer="2835" to-port="0"/>
		<edge from-layer="2830" from-port="0" to-layer="2835" to-port="1"/>
		<edge from-layer="2829" from-port="5" to-layer="2836" to-port="0"/>
		<edge from-layer="2835" from-port="2" to-layer="2836" to-port="1"/>
		<edge from-layer="2837" from-port="0" to-layer="2838" to-port="0"/>
		<edge from-layer="2836" from-port="2" to-layer="2839" to-port="0"/>
		<edge from-layer="2838" from-port="1" to-layer="2839" to-port="1"/>
		<edge from-layer="2839" from-port="2" to-layer="2840" to-port="0"/>
		<edge from-layer="2840" from-port="1" to-layer="2841" to-port="0"/>
		<edge from-layer="2730" from-port="0" to-layer="2841" to-port="1"/>
		<edge from-layer="2731" from-port="0" to-layer="2841" to-port="2"/>
		<edge from-layer="2732" from-port="0" to-layer="2841" to-port="3"/>
		<edge from-layer="2733" from-port="0" to-layer="2841" to-port="4"/>
		<edge from-layer="2841" from-port="5" to-layer="2843" to-port="0"/>
		<edge from-layer="2842" from-port="0" to-layer="2843" to-port="1"/>
		<edge from-layer="2843" from-port="2" to-layer="2844" to-port="0"/>
		<edge from-layer="2726" from-port="0" to-layer="2844" to-port="1"/>
		<edge from-layer="2727" from-port="0" to-layer="2844" to-port="2"/>
		<edge from-layer="2728" from-port="0" to-layer="2844" to-port="3"/>
		<edge from-layer="2729" from-port="0" to-layer="2844" to-port="4"/>
		<edge from-layer="2844" from-port="5" to-layer="2845" to-port="0"/>
		<edge from-layer="2725" from-port="0" to-layer="2845" to-port="1"/>
		<edge from-layer="2845" from-port="2" to-layer="2846" to-port="0"/>
		<edge from-layer="2724" from-port="0" to-layer="2846" to-port="1"/>
		<edge from-layer="2846" from-port="2" to-layer="2847" to-port="0"/>
		<edge from-layer="2720" from-port="0" to-layer="2847" to-port="1"/>
		<edge from-layer="2721" from-port="0" to-layer="2847" to-port="2"/>
		<edge from-layer="2722" from-port="0" to-layer="2847" to-port="3"/>
		<edge from-layer="2723" from-port="0" to-layer="2847" to-port="4"/>
		<edge from-layer="2843" from-port="2" to-layer="2848" to-port="0"/>
		<edge from-layer="2847" from-port="5" to-layer="2849" to-port="0"/>
		<edge from-layer="2848" from-port="1" to-layer="2849" to-port="1"/>
		<edge from-layer="2850" from-port="0" to-layer="2851" to-port="0"/>
		<edge from-layer="2849" from-port="2" to-layer="2852" to-port="0"/>
		<edge from-layer="2851" from-port="1" to-layer="2852" to-port="1"/>
		<edge from-layer="2853" from-port="0" to-layer="2854" to-port="0"/>
		<edge from-layer="2852" from-port="2" to-layer="2855" to-port="0"/>
		<edge from-layer="2854" from-port="1" to-layer="2855" to-port="1"/>
		<edge from-layer="2855" from-port="2" to-layer="2856" to-port="0"/>
		<edge from-layer="2856" from-port="1" to-layer="2857" to-port="0"/>
		<edge from-layer="2716" from-port="0" to-layer="2857" to-port="1"/>
		<edge from-layer="2717" from-port="0" to-layer="2857" to-port="2"/>
		<edge from-layer="2718" from-port="0" to-layer="2857" to-port="3"/>
		<edge from-layer="2719" from-port="0" to-layer="2857" to-port="4"/>
		<edge from-layer="2841" from-port="5" to-layer="2858" to-port="0"/>
		<edge from-layer="2857" from-port="5" to-layer="2858" to-port="1"/>
		<edge from-layer="2858" from-port="2" to-layer="2859" to-port="0"/>
		<edge from-layer="2712" from-port="0" to-layer="2859" to-port="1"/>
		<edge from-layer="2713" from-port="0" to-layer="2859" to-port="2"/>
		<edge from-layer="2714" from-port="0" to-layer="2859" to-port="3"/>
		<edge from-layer="2715" from-port="0" to-layer="2859" to-port="4"/>
		<edge from-layer="2711" from-port="5" to-layer="2860" to-port="0"/>
		<edge from-layer="2859" from-port="5" to-layer="2860" to-port="1"/>
		<edge from-layer="2860" from-port="2" to-layer="2861" to-port="0"/>
		<edge from-layer="91" from-port="0" to-layer="2861" to-port="1"/>
		<edge from-layer="92" from-port="0" to-layer="2861" to-port="2"/>
		<edge from-layer="93" from-port="0" to-layer="2861" to-port="3"/>
		<edge from-layer="94" from-port="0" to-layer="2861" to-port="4"/>
		<edge from-layer="2863" from-port="0" to-layer="2864" to-port="0"/>
		<edge from-layer="2864" from-port="1" to-layer="2865" to-port="0"/>
		<edge from-layer="2862" from-port="0" to-layer="2865" to-port="1"/>
		<edge from-layer="2861" from-port="5" to-layer="2866" to-port="0"/>
		<edge from-layer="2865" from-port="2" to-layer="2866" to-port="1"/>
		<edge from-layer="2867" from-port="0" to-layer="2868" to-port="0"/>
		<edge from-layer="2866" from-port="2" to-layer="2869" to-port="0"/>
		<edge from-layer="2868" from-port="1" to-layer="2869" to-port="1"/>
		<edge from-layer="2869" from-port="2" to-layer="2870" to-port="0"/>
		<edge from-layer="87" from-port="0" to-layer="2870" to-port="1"/>
		<edge from-layer="88" from-port="0" to-layer="2870" to-port="2"/>
		<edge from-layer="89" from-port="0" to-layer="2870" to-port="3"/>
		<edge from-layer="90" from-port="0" to-layer="2870" to-port="4"/>
		<edge from-layer="2870" from-port="5" to-layer="2871" to-port="0"/>
		<edge from-layer="2448" from-port="5" to-layer="2871" to-port="1"/>
		<edge from-layer="2871" from-port="2" to-layer="2872" to-port="0"/>
		<edge from-layer="2872" from-port="1" to-layer="2873" to-port="0"/>
		<edge from-layer="83" from-port="0" to-layer="2873" to-port="1"/>
		<edge from-layer="84" from-port="0" to-layer="2873" to-port="2"/>
		<edge from-layer="85" from-port="0" to-layer="2873" to-port="3"/>
		<edge from-layer="86" from-port="0" to-layer="2873" to-port="4"/>
		<edge from-layer="2875" from-port="0" to-layer="2876" to-port="0"/>
		<edge from-layer="2876" from-port="1" to-layer="2877" to-port="0"/>
		<edge from-layer="2874" from-port="0" to-layer="2877" to-port="1"/>
		<edge from-layer="2873" from-port="5" to-layer="2878" to-port="0"/>
		<edge from-layer="2877" from-port="2" to-layer="2878" to-port="1"/>
		<edge from-layer="2879" from-port="0" to-layer="2880" to-port="0"/>
		<edge from-layer="2878" from-port="2" to-layer="2881" to-port="0"/>
		<edge from-layer="2880" from-port="1" to-layer="2881" to-port="1"/>
		<edge from-layer="2881" from-port="2" to-layer="2882" to-port="0"/>
		<edge from-layer="2882" from-port="1" to-layer="2883" to-port="0"/>
		<edge from-layer="79" from-port="0" to-layer="2883" to-port="1"/>
		<edge from-layer="80" from-port="0" to-layer="2883" to-port="2"/>
		<edge from-layer="81" from-port="0" to-layer="2883" to-port="3"/>
		<edge from-layer="82" from-port="0" to-layer="2883" to-port="4"/>
		<edge from-layer="2886" from-port="0" to-layer="2887" to-port="0"/>
		<edge from-layer="2887" from-port="1" to-layer="2888" to-port="0"/>
		<edge from-layer="2885" from-port="0" to-layer="2888" to-port="1"/>
		<edge from-layer="2888" from-port="2" to-layer="2889" to-port="0"/>
		<edge from-layer="2884" from-port="0" to-layer="2889" to-port="1"/>
		<edge from-layer="2883" from-port="5" to-layer="2890" to-port="0"/>
		<edge from-layer="2889" from-port="2" to-layer="2890" to-port="1"/>
		<edge from-layer="2891" from-port="0" to-layer="2892" to-port="0"/>
		<edge from-layer="2890" from-port="2" to-layer="2893" to-port="0"/>
		<edge from-layer="2892" from-port="1" to-layer="2893" to-port="1"/>
		<edge from-layer="2893" from-port="2" to-layer="2894" to-port="0"/>
		<edge from-layer="75" from-port="0" to-layer="2894" to-port="1"/>
		<edge from-layer="76" from-port="0" to-layer="2894" to-port="2"/>
		<edge from-layer="77" from-port="0" to-layer="2894" to-port="3"/>
		<edge from-layer="78" from-port="0" to-layer="2894" to-port="4"/>
		<edge from-layer="2894" from-port="5" to-layer="2895" to-port="0"/>
		<edge from-layer="74" from-port="0" to-layer="2895" to-port="1"/>
		<edge from-layer="2897" from-port="0" to-layer="2898" to-port="0"/>
		<edge from-layer="2898" from-port="1" to-layer="2899" to-port="0"/>
		<edge from-layer="2896" from-port="0" to-layer="2899" to-port="1"/>
		<edge from-layer="2895" from-port="2" to-layer="2900" to-port="0"/>
		<edge from-layer="2899" from-port="2" to-layer="2900" to-port="1"/>
		<edge from-layer="2901" from-port="0" to-layer="2902" to-port="0"/>
		<edge from-layer="2900" from-port="2" to-layer="2903" to-port="0"/>
		<edge from-layer="2902" from-port="1" to-layer="2903" to-port="1"/>
		<edge from-layer="2903" from-port="2" to-layer="2904" to-port="0"/>
		<edge from-layer="70" from-port="0" to-layer="2904" to-port="1"/>
		<edge from-layer="71" from-port="0" to-layer="2904" to-port="2"/>
		<edge from-layer="72" from-port="0" to-layer="2904" to-port="3"/>
		<edge from-layer="73" from-port="0" to-layer="2904" to-port="4"/>
		<edge from-layer="2895" from-port="2" to-layer="2905" to-port="0"/>
		<edge from-layer="2905" from-port="1" to-layer="2908" to-port="0"/>
		<edge from-layer="2906" from-port="0" to-layer="2908" to-port="1"/>
		<edge from-layer="2907" from-port="0" to-layer="2908" to-port="2"/>
		<edge from-layer="2908" from-port="3" to-layer="2911" to-port="0"/>
		<edge from-layer="2909" from-port="0" to-layer="2911" to-port="1"/>
		<edge from-layer="2910" from-port="0" to-layer="2911" to-port="2"/>
		<edge from-layer="2904" from-port="5" to-layer="2912" to-port="0"/>
		<edge from-layer="2911" from-port="3" to-layer="2912" to-port="1"/>
		<edge from-layer="2913" from-port="0" to-layer="2914" to-port="0"/>
		<edge from-layer="2912" from-port="2" to-layer="2915" to-port="0"/>
		<edge from-layer="2914" from-port="1" to-layer="2915" to-port="1"/>
		<edge from-layer="2916" from-port="0" to-layer="2917" to-port="0"/>
		<edge from-layer="2915" from-port="2" to-layer="2918" to-port="0"/>
		<edge from-layer="2917" from-port="1" to-layer="2918" to-port="1"/>
		<edge from-layer="2919" from-port="0" to-layer="2920" to-port="0"/>
		<edge from-layer="2918" from-port="2" to-layer="2921" to-port="0"/>
		<edge from-layer="2920" from-port="1" to-layer="2921" to-port="1"/>
		<edge from-layer="2921" from-port="2" to-layer="2923" to-port="0"/>
		<edge from-layer="2922" from-port="0" to-layer="2923" to-port="1"/>
		<edge from-layer="2923" from-port="2" to-layer="2924" to-port="0"/>
	</edges>
	<rt_info>
		<MO_version value="custom_HEAD_0250f62d11102ae97a35803756f079090876ddc1"/>
		<Runtime_version value="2023.0.0-10367-0250f62d111-HEAD"/>
		<conversion_parameters>
			<framework value="onnx"/>
			<input value="data"/>
			<input_model value="DIR/person-reidentification-retail-0287.onnx"/>
			<input_shape value="[1,3,256,128]"/>
			<layout value="data(nchw)"/>
			<mean_values value="data[123.675,116.28,103.53]"/>
			<model_name value="person-reidentification-retail-0287"/>
			<output value="reid_embedding"/>
			<output_dir value="DIR"/>
			<reverse_input_channels value="True"/>
			<scale_values value="data[58.395,57.12,57.375]"/>
		</conversion_parameters>
		<legacy_frontend value="False"/>
		<quantization_parameters>
			<cli_params>
				<ac_config value="None"/>
				<data_source value="None"/>
				<direct_dump value="True"/>
				<engine value="None"/>
				<evaluate value="False"/>
				<keep_uncompressed_weights value="False"/>
				<log_level value="INFO"/>
				<max_drop value="None"/>
				<model value="None"/>
				<name value="None"/>
				<output_dir value="PATH"/>
				<pbar value="False"/>
				<preset value="None"/>
				<quantize value="None"/>
				<stream_output value="False"/>
				<weights value="None"/>
			</cli_params>
			<config value="{
		'compression': {
			'algorithms': [
				{
					'name': 'DefaultQuantization',
					'params': {
						'num_samples_for_tuning': 2000,
						'preset': 'performance',
						'stat_subset_size': 300,
						'use_layerwise_tuning': false
					}
				}
			],
			'dump_intermediate_model': true,
			'target_device': 'ANY'
		},
		'engine': {
			'models': [
				{
					'name': 'person-reidentification-retail-0287',
					'launchers': [
						{
							'framework': 'openvino',
							'adapter': 'reid',
							'device': 'cpu'
						}
					],
					'datasets': [
						{
							'name': 'market1501',
							'data_source': 'PATH',
							'annotation_conversion': {
								'converter': 'market1501_reid',
								'data_dir': 'PATH'
							},
							'annotation': 'PATH',
							'preprocessing': [
								{
									'type': 'resize',
									'dst_width': 128,
									'dst_height': 256,
									'use_pillow': true,
									'interpolation': 'BILINEAR'
								}
							],
							'metrics': [
								{
									'name': 'rank@1',
									'type': 'cmc',
									'top_k': 1,
									'reference': 0.929
								},
								{
									'type': 'reid_map',
									'reference': 0.766
								}
							],
							'_command_line_mapping': {
								'data_dir': 'PATH'
							}
						}
					]
				}
			],
			'stat_requests_number': null,
			'eval_requests_number': null,
			'type': 'accuracy_checker'
		}
	}"/>
			<version value="invalid version"/>
		</quantization_parameters>
	</rt_info>
	<quantization_parameters>
		<config>{
		'compression': {
			'algorithms': [
				{
					'name': 'DefaultQuantization',
					'params': {
						'num_samples_for_tuning': 2000,
						'preset': 'performance',
						'stat_subset_size': 300,
						'use_layerwise_tuning': false
					}
				}
			],
			'dump_intermediate_model': true,
			'target_device': 'ANY'
		},
		'engine': {
			'models': [
				{
					'name': 'person-reidentification-retail-0287',
					'launchers': [
						{
							'framework': 'openvino',
							'adapter': 'reid',
							'device': 'cpu'
						}
					],
					'datasets': [
						{
							'name': 'market1501',
							'data_source': 'PATH',
							'annotation_conversion': {
								'converter': 'market1501_reid',
								'data_dir': 'PATH'
							},
							'annotation': 'PATH',
							'preprocessing': [
								{
									'type': 'resize',
									'dst_width': 128,
									'dst_height': 256,
									'use_pillow': true,
									'interpolation': 'BILINEAR'
								}
							],
							'metrics': [
								{
									'name': 'rank@1',
									'type': 'cmc',
									'top_k': 1,
									'reference': 0.929
								},
								{
									'type': 'reid_map',
									'reference': 0.766
								}
							],
							'_command_line_mapping': {
								'data_dir': 'PATH'
							}
						}
					]
				}
			],
			'stat_requests_number': null,
			'eval_requests_number': null,
			'type': 'accuracy_checker'
		}
	}</config>
		<version value="invalid version"/>
		<cli_params value="{'quantize': None, 'preset': None, 'model': None, 'weights': None, 'name': None, 'engine': None, 'ac_config': None, 'max_drop': None, 'evaluate': False, 'output_dir': 'PATH', 'direct_dump': True, 'log_level': 'INFO', 'pbar': False, 'stream_output': False, 'keep_uncompressed_weights': False, 'data_source': None}"/>
	</quantization_parameters>
</net>
